app/src/main/assets/ml/ocr_model_production_fp16.tflite (tflite, 317216 bytes, 43 tensors)

model_1/batch_normalization_2/FusedBatchNormV3 f4 [64]
000000 8b ad 88 be d7 bc 0b bf e6 14 26 bf ae 57 8d be
       -0.26694903 -0.5458502 -0.6487564 -0.27605957
000010 1b 4f 16 bf 73 03 04 bf f8 58 13 bf 6f c7 38 bf
       -0.58714455 -0.51567763 -0.5755763 -0.7217931
000020 0b 9b fb be d6 97 69 be ca 33 08 bf 3f 7d 18 be
       -0.49141726 -0.22811827 -0.53204024 -0.14891528
000030 60 e4 9b be 02 bf 9f be 81 2f 85 bf 8e 7b 41 be
       -0.30447674 -0.31200415 -1.0405122 -0.18894789
000040 1d 4b 20 bf d5 81 84 be 8f 4e 60 be 72 87 88 be
       -0.62614614 -0.25880304 -0.21904968 -0.26665837
000050 40 9f 69 be 84 22 93 be 17 5b a1 be 95 6c 96 be
       -0.22814655 -0.2873727 -0.3151481 -0.29379717
000060 0e 90 a4 be 6a 32 74 be 51 fc 15 bf 40 0d 09 bf
       -0.32141155 -0.23847356 -0.5858813 -0.5353584
000070 da c2 5b bf ff 08 8e be 3f 2f 9a be 32 5f 0b bf
       -0.85844195 -0.27741238 -0.3011417 -0.5444213
000080 06 0b 7e be d2 cf 00 bf 9d e7 22 bf a4 cb a1 be
       -0.24808893 -0.5031711 -0.63634664 -0.31600678
000090 d7 e0 11 bf 6d 60 8a bf 56 e6 ca be 11 0c 1b bf
       -0.56983703 -1.0810677 -0.39628857 -0.60565287
0000a0 05 c6 ae be 35 ef 14 bf 11 42 b3 be a4 5e 06 bf
       -0.34135452 -0.581775 -0.35011342 -0.5248816
0000b0 63 06 31 be 2c 08 05 bf 9c 92 f5 be 09 f6 16 bf
       -0.17287593 -0.51965594 -0.47963417 -0.5896917
0000c0 68 4f 32 be 94 1b cb be 42 06 a6 be bc cb 55 be
       -0.17413104 -0.39669478 -0.3242665 -0.208785
0000d0 5c 17 f2 be 58 01 90 be fc 92 c5 be 76 70 d0 be
       -0.47283447 -0.28126025 -0.38588703 -0.407108
0000e0 0f 97 64 be 31 c7 16 bf d2 e6 fc be 47 6c 9b be
       -0.2232325 -0.5889769 -0.49394852 -0.30356047
0000f0 04 4f 01 bf 9c 5e 8c be da 3b 20 bf 7e a8 0d be
       -0.50511193 -0.2741593 -0.62591326 -0.13833806

model_1/batch_normalization_2/FusedBatchNormV31 f4 [64]
000000 3e f2 1b 41 42 f1 ea 40 64 aa 17 41 68 47 39 41
       9.746641 7.3419504 9.479099 11.579933
000010 85 7a 03 41 68 c9 3f 40 8d 40 33 41 50 ae 03 41
       8.217412 2.9966679 11.203259 8.230057
000020 04 52 05 41 d5 2a 29 41 85 85 c6 40 cf dc 69 41
       8.332523 10.572957 6.203799 14.616408
000030 11 01 0b 41 5f e2 7b 41 0a 58 b0 40 2b 36 bc 41
       8.68776 15.742766 5.510747 23.52645
000040 8d ee 15 41 e7 ea 28 41 97 ac 31 41 15 f6 eb 40
       9.37074 10.557349 11.104636 7.3737893
000050 fe ce 10 41 f2 c6 23 41 7b 67 e9 40 3e 36 37 41
       9.050535 10.236071 7.293882 11.450743
000060 20 52 d8 40 b4 45 3c 41 fc 11 12 41 91 1c 3a 41
       6.760025 11.767017 9.129391 11.631974
000070 17 07 15 41 c9 c3 88 41 5b ea 9c 40 b6 0e 50 41
       9.314231 17.095598 4.903608 13.003592
000080 db 4b 2b 41 9b a0 21 41 2e ec 47 41 31 00 1f 41
       10.706019 10.10171 12.495161 9.937547
000090 3e b3 1c 41 5c 27 a9 40 a3 80 87 40 8d 88 25 41
       9.79376 5.2860546 4.2344527 10.345838
0000a0 bd c5 ad 40 89 13 28 41 9c b3 06 41 4f e8 f3 40
       5.430388 10.504769 8.41885 7.622108
0000b0 85 14 8a 41 94 f0 26 41 99 6a f6 40 a1 74 14 41
       17.26002 10.433735 7.7005124 9.278474
0000c0 96 4b 9e 41 13 5e 40 41 e4 ab ad 40 d8 98 7b 41
       19.786907 12.022967 5.4272327 15.724815
0000d0 7a 15 6e 41 d9 eb 42 41 87 c0 3f 41 53 2f 07 41
       14.880243 12.18258 11.984504 8.449054
0000e0 ef 22 50 41 09 75 0e 41 a3 00 36 41 0a a4 d3 40
       13.008529 8.903573 11.375155 6.6137743
0000f0 6d c9 01 41 1a 92 3b 41 58 58 d5 40 fd a7 5d 41
       8.111676 11.723169 6.667034 13.853513

model_1/batch_normalization_1/FusedBatchNormV3 f4 [64]
000000 a4 a2 72 bf 5c 26 c6 bf b5 dc af bf f7 4e c8 be
       -0.9477942 -1.5480456 -1.373923 -0.39122745
000010 8a c8 c8 bf 84 14 a8 bf ea 52 c7 bf 98 f2 9b be
       -1.56862 -1.3131261 -1.5572178 -0.30458522
000020 ba 17 b3 bf 4e 4f f3 be 50 32 1a bf 46 90 5b bf
       -1.3991616 -0.47521442 -0.6023302 -0.8576702
000030 6c 23 a5 be ae da 98 be e3 25 4a bf 3d 8f 92 bf
       -0.32253587 -0.2985434 -0.7896406 -1.1449963
000040 da 01 5d bf 58 c5 9f bf d8 e1 64 bd 52 4c 59 bf
       -0.8633095 -1.24821 -0.055879444 -0.8488208
000050 88 bf 65 bf 84 a1 d3 be 08 32 d1 be d0 7a 8c bf
       -0.8974538 -0.41334164 -0.40858483 -1.0974979
000060 2d 03 bc bf 3f f8 0e bf 08 ca 2a bf 9c 74 ad be
       -1.4688469 -0.55847543 -0.66714525 -0.33878028
000070 ae 34 52 bf f4 f4 a0 bf b7 f1 9a bf b9 c0 6f bf
       -0.8211163 -1.2574754 -1.2105016 -0.93653446
000080 30 0e a8 be e5 7e 36 be b4 41 ab bf 6a 6d b6 be
       -0.32823324 -0.17821844 -1.3379426 -0.3563035
000090 37 2e a4 bf 6c ec c7 bf 9f e2 2c be 40 e9 28 bf
       -1.2826604 -1.5619025 -0.16883324 -0.6598091
0000a0 73 b7 27 bf d6 7b be bf f7 f8 ad be bb 32 87 be
       -0.65514296 -1.4881542 -0.33979008 -0.26405892
0000b0 da 08 b5 bf 35 9b bb be fc 76 b3 bf 1b e0 91 be
       -1.4143326 -0.3664185 -1.4020686 -0.2849129
0000c0 7a a5 81 bf bd 6d 6c be d5 7b 54 bf ea 22 82 bf
       -1.0128624 -0.23088737 -0.8300145 -1.0166905
0000d0 c2 3b d6 bd a2 ee 84 be a2 eb 3b bf 74 11 75 bd
       -0.10460617 -0.25963312 -0.7340642 -0.059831098
0000e0 b2 b4 81 bf de 81 17 bf c4 5a 3e be 42 c8 a8 be
       -1.0133269 -0.59182537 -0.18589312 -0.32965285
0000f0 c1 00 79 bf 14 75 b1 be 23 85 11 bf f7 35 83 bf
       -0.97266775 -0.34659636 -0.56843776 -1.0250844

model_1/batch_normalization_1/FusedBatchNormV31 f4 [64]
000000 95 3c 55 41 25 37 65 41 99 38 97 41 59 fd 0e 41
       13.327291 14.325963 18.902636 8.936852
000010 ac f2 4c 41 74 3e 4b 41 42 e5 67 41 0a d9 94 40
       12.809246 12.702747 14.493471 4.651494
000020 99 35 75 41 ac ed 8e 41 06 ec 5a 41 d3 ed 8d 41
       15.325585 17.86605 13.682623 17.741125
000030 8c 2a 42 41 e9 d0 f5 40 75 1c 7d 41 2c 56 87 41
       12.135387 7.6817517 15.8194475 16.917076
000040 1a 6e a2 41 84 dd 73 41 8c 4d d8 40 35 62 8f 41
       20.30376 15.241581 6.759466 17.922953
000050 ef 86 ba 41 22 04 e8 40 4e 34 e6 40 85 28 85 41
       23.315886 7.2505045 7.193885 16.644785
000060 f1 12 2f 41 ff 81 3d 41 a0 aa 6e 41 84 8c 85 41
       10.942124 11.844237 14.9166565 16.693611
000070 ac a1 51 41 44 16 3b 41 62 ee 6c 41 95 1b f6 40
       13.101971 11.692936 14.808199 7.690867
000080 1b 14 13 41 c5 e9 11 41 41 7e 92 41 ca 0e 4d 41
       9.192409 9.119573 18.311647 12.816111
000090 15 ed 4b 41 20 7b 56 41 5f 1a 14 41 5c d4 a5 41
       12.745381 13.40506 9.256438 20.728691
0000a0 e0 e7 66 41 1d ee 33 41 21 f5 0c 41 ba ff 21 41
       14.43161 11.245633 8.809846 10.124933
0000b0 2d e2 6e 41 53 e1 10 41 d7 c2 8a 41 f2 22 0f 41
       14.930219 9.055011 17.345137 8.946032
0000c0 dd c4 96 41 7d 80 94 41 94 f6 4e 41 40 60 9a 41
       18.846125 18.562738 12.9352 19.296997
0000d0 64 4c 8f 41 f2 bf 2b 41 b9 94 7b 41 a5 b2 d8 41
       17.9123 10.734362 15.723809 27.087229
0000e0 dd 41 6a 41 71 83 86 41 77 34 3b 41 7f 17 b8 40
       14.64108 16.81418 11.700309 5.752868
0000f0 2f 5e 8b 41 ed c5 ef 40 34 51 85 41 0d 72 89 41
       17.420988 7.492911 16.66465 17.180689

model_1/batch_normalization/FusedBatchNormV3 f4 [32]
000000 6e e0 36 be f0 5d 5c c0 9d 15 2b c0 9e 12 30 c0
       -0.1785905 -3.4432335 -2.6731942 -2.7511363
000010 1b 60 a9 3c 07 10 c4 3b 21 1e 77 c0 f0 5a 56 c0
       0.02067571 0.005983356 -3.861214 -3.3493004
000020 3c 34 55 c0 f4 f5 62 c0 6e 9b 90 3d e9 4d 2c bc
       -3.3313131 -3.5462618 0.07060896 -0.010516622
000030 56 ff 90 c0 f1 74 43 c0 6b ef 42 3d 2b 9a 49 c0
       -4.531169 -3.0540125 0.047591608 -3.1500347
000040 ab ce 89 bd 51 97 64 c0 61 5d 6d c0 ef e6 4c be
       -0.06728872 -3.5717356 -3.7088244 -0.20009969
000050 e3 84 e7 ba 21 9b a1 3d 91 f8 2c 3c b3 77 4b bc
       -0.0017663505 0.078909166 0.01055731 -0.012418675
000060 7f 2b 0f c0 b2 09 52 bc b9 a9 30 c0 64 e9 57 c0
       -2.2370298 -0.012819694 -2.760359 -3.37362
000070 88 fa df bd 9a d6 4f c0 47 86 da bf 75 45 36 3c
       -0.10936457 -3.2474732 -1.7072228 0.011124958

model_1/batch_normalization/FusedBatchNormV31 f4 [32]
000000 41 19 f5 41 ed da ed 40 18 93 18 41 f6 ef 12 41
       30.637331 7.4329743 9.535912 9.183584
000010 98 58 09 42 ce 25 f1 41 39 66 c4 40 e9 15 3e 41
       34.336517 30.14346 6.1374784 11.880349
000020 81 45 35 41 d5 5b 51 41 93 2b fc 41 3e e1 12 42
       11.329469 13.08492 31.521276 36.719963
000030 39 2b ba 41 ab 83 1f 41 0b 0b 0c 42 0a 63 f7 40
       23.271105 9.9696455 35.010784 7.7308397
000040 70 a5 f9 41 d1 d6 04 41 5a 90 e2 40 30 bb ff 41
       31.20578 8.302445 7.080121 31.9664
000050 dc 30 fa 41 38 6e 0e 42 76 a1 fe 41 c0 f8 fa 41
       31.273857 35.607635 31.828838 31.37146
000060 5d 4f c2 41 f8 e1 f2 41 a5 98 87 41 a6 b6 41 41
       24.288752 30.360336 16.949533 12.107092
000070 64 30 f9 41 75 3a 16 41 3a 08 bc 41 1d b8 11 42
       31.148628 9.389272 23.504017 36.4298

unstack f4 [192]
000000 dc d4 8b 3d cb 70 5e bc 6e e7 9f bd 56 81 78 bd
       0.06827709 -0.013576697 -0.078078136 -0.06067022
000010 bf fe 2a 3e d4 47 53 3e 81 cc 43 be 2a 2b 0c bd
       0.1669874 0.20632869 -0.19120981 -0.034220852
000020 1f d0 9f 3c 42 07 ac 3b 09 cf a7 3d 89 b8 e0 3d
       0.01950842 0.0052498886 0.08193786 0.10972697
000030 9d 7b c5 bc 84 c0 e9 bc c3 ee 63 bd 3d 7a 22 3e
       -0.024106795 -0.028534181 -0.055647623 0.15866943
000040 d7 00 2f bc 8c c1 9a bd 04 b1 b0 bd 76 59 12 3e
       -0.010681353 -0.075564474 -0.08627513 0.14291939
000050 4a cd e3 bc 82 5e c9 3d 02 11 f9 3b 46 84 d5 3d
       -0.02780785 0.09832479 0.0076009044 0.1042562
000060 17 f7 41 bd cc c6 0c 3d ba 08 8e 3d ff 90 b0 3d
       -0.047354784 0.034369275 0.06935258 0.08621406
000070 a2 4d 32 3d f6 9e 27 3d 1f ab 81 3c 60 0f 0a 3d
       0.043531068 0.04092308 0.015828667 0.03370607
000080 ae dd ef 3d c9 26 de 3c 02 69 7d 3c 9c e7 c8 3d
       0.11712204 0.027118104 0.01546693 0.09809801
000090 42 4a 19 3d ef ee 1a bc 1d 86 c2 bc 4d 3f 19 bc
       0.037424333 -0.00945638 -0.02374559 -0.009353471
0000a0 5a 7f 09 3d 50 bf c6 3d bb 6e a7 3d 64 8f 18 3d
       0.033568718 0.09704459 0.08175417 0.037246123
0000b0 d3 b9 08 3d 07 d5 1f be 04 7d 58 3d d3 5e 78 3d
       0.03338034 -0.15608607 0.0528536 0.060637306
0000c0 5a 68 45 bd 88 5c 94 3d 9d 1a 85 bd 7c 28 0d be
       -0.04819522 0.072442114 -0.06499217 -0.13784975
0000d0 5b 10 4d 3d f6 59 2a 3d 73 3a 2a 3d 20 b9 af bd
       0.050064426 0.0415897 0.041559648 -0.08580232
0000e0 3c 94 1e 3d 46 99 f7 3c 46 9d 1a be 1f 15 81 3d
       0.038715586 0.030224454 -0.15099058 0.06302857
0000f0 f2 17 2f bc 35 31 3e 3d 39 e4 16 be 71 1e 33 3d
       -0.010686861 0.046433646 -0.14735498 0.043730203
000100 1b 28 11 3d 5e 23 11 3e 22 bb 3b 3d 0f 1d 6c 3d
       0.03543864 0.14173648 0.04583276 0.0576449
000110 3a fd 12 3d 08 74 0e 3d e2 a1 b3 3d 9f 86 14 3e
       0.035886027 0.034778625 0.08771111 0.14504479
000120 b4 4b 7f 3d cc 8e 36 3d bf c4 fc ba 5c 53 5c 3d
       0.062328056 0.044569775 -0.0019284709 0.053790435
000130 12 dc b7 3d a0 14 4f 3c 32 a2 eb 3d 00 0c 25 3c
       0.08977522 0.012639195 0.11505546 0.010073662
000140 81 4f a6 3d 8b 90 9c 3d 9f 26 8a 3d 02 76 19 3d
       0.08120633 0.07644757 0.06745648 0.037466057
000150 53 42 74 3d fa 63 40 3d 8e fb 3e 3d 1f 56 dc 3d
       0.059633564 0.046970345 0.04662662 0.10758614
000160 56 b5 92 3d 2d d2 a9 bc 3c 6a c2 3d f5 7d 93 3d
       0.07163493 -0.020730102 0.09492919 0.07201759
000170 be 14 2b 3d 0b b9 c2 3d ad b2 8b 3d b3 25 09 3d
       0.04176783 0.095079504 0.06821189 0.03348322
000180 5a 17 86 bd cf 32 78 3d 21 34 8e 3d 0d 57 d1 3d
       -0.06547423 0.06059533 0.069435365 0.10221682
000190 64 e7 3d 3d a5 9b 99 3c 30 56 5c 3d 72 c6 b9 3d
       0.04636325 0.018750975 0.053793132 0.090710536
0001a0 4e 5f a4 3c a6 02 5a 3d a6 c1 c4 3d 62 0c 13 3d
       0.020064976 0.053225182 0.09607248 0.03590048
0001b0 36 1f 21 3c 91 18 73 3d 40 63 81 3d 52 a5 13 3d
       0.009834101 0.0593496 0.063177586 0.036046334
0001c0 41 72 6b 3b df 54 28 3d c5 50 b5 3b a8 e7 1b 3e
       0.0035926255 0.041096564 0.00553331 0.15225089
0001d0 9d 34 b8 3a 6d 94 55 3d de 79 b1 3d 90 48 55 3d
       0.0014053766 0.052143503 0.086658224 0.052071154
0001e0 8d 81 96 3d 81 8b 42 3d 11 99 b8 3d 37 dd 16 3e
       0.073489286 0.047496323 0.0901357 0.14732824
0001f0 cd a5 91 bc c4 29 cd 3d b9 2e 2c 3d 09 a3 13 3b
       -0.017779255 0.10017732 0.042036746 0.0022527596
000200 2a ca 6e bd 39 f3 06 be 36 8e 1f be 1d bf 0d 3d
       -0.058298267 -0.1317872 -0.15581593 0.034606088
000210 5f 60 14 3c be 99 d0 3d 54 2a ef 3d a5 3a 53 3d
       0.00905618 0.10185574 0.11677995 0.0515696
000220 a9 a6 94 bd 5c 87 e4 3b 66 35 e0 bd 59 05 cd bd
       -0.072583504 0.006974144 -0.10947685 -0.100107856
000230 64 47 df bd e6 53 51 3e 59 48 17 3e dc 1f bb 3d
       -0.109022886 0.20442161 0.14773692 0.09136936
000240 69 ad 9b 3c b1 89 a1 bd 3f 67 94 bc 47 59 b8 bc
       0.019003587 -0.07887591 -0.018115638 -0.022503508
000250 c5 94 0e bd fa 14 33 3e c1 dc b2 3c 53 d3 29 3e
       -0.034809846 0.1748847 0.02183378 0.1658452
000260 aa d7 59 bd 2a c4 bf bd ed 9b e2 bd d4 88 24 be
       -0.05318419 -0.09363587 -0.11064897 -0.16067821
000270 21 c9 c1 3d 88 60 17 3e c8 31 02 3e 4c 46 94 3d
       0.094621904 0.14782917 0.12714303 0.072399706
000280 39 da ea bd 2d 4b 02 3d e8 b9 da 3d 83 5f a5 bd
       -0.11467404 0.031809974 0.1067999 -0.08074858
000290 cc b9 a6 3d 2f ff 1e 3d 4d eb d2 3c 9b 32 1a be
       0.08140907 0.03881758 0.025746966 -0.15058367
0002a0 fb 3d 3e 3d 71 93 1e 3e 6b dd 78 3d c9 ab f0 3c
       0.046445828 0.15485932 0.060758036 0.029378789
0002b0 42 68 e8 3c ac 82 5f bd 79 22 90 3c 0d c7 5b bd
       0.028370026 -0.054567978 0.017594563 -0.053656626
0002c0 9b a4 f6 3d 5a 7e c8 bd a0 dc 8e bd 34 c3 ba bd
       0.12043115 -0.09789725 -0.06975675 -0.09119263
0002d0 94 5e 3d 3d 5d 00 2e be 9a b5 bd bd 5a 51 52 bc
       0.046232775 -0.16992326 -0.092631534 -0.012836779
0002e0 35 1b 4e bd a4 0d 43 bc 57 ee 1a bc 3f a9 c6 bd
       -0.050318915 -0.011905108 -0.009456239 -0.0970025
0002f0 43 41 ab 3d c3 5d 50 3e 79 15 9e bd f3 c0 54 bd
       0.08362057 0.20348267 -0.07718939 -0.051941823

unstack1 f4 [192]
000000 dc d4 8b 3d cb 70 5e bc 6e e7 9f bd 56 81 78 bd
       0.06827709 -0.013576697 -0.078078136 -0.06067022
000010 bf fe 2a 3e d4 47 53 3e 81 cc 43 be 2a 2b 0c bd
       0.1669874 0.20632869 -0.19120981 -0.034220852
000020 1f d0 9f 3c 42 07 ac 3b 09 cf a7 3d 89 b8 e0 3d
       0.01950842 0.0052498886 0.08193786 0.10972697
000030 9d 7b c5 bc 84 c0 e9 bc c3 ee 63 bd 3d 7a 22 3e
       -0.024106795 -0.028534181 -0.055647623 0.15866943
000040 d7 00 2f bc 8c c1 9a bd 04 b1 b0 bd 76 59 12 3e
       -0.010681353 -0.075564474 -0.08627513 0.14291939
000050 4a cd e3 bc 82 5e c9 3d 02 11 f9 3b 46 84 d5 3d
       -0.02780785 0.09832479 0.0076009044 0.1042562
000060 17 f7 41 bd cc c6 0c 3d ba 08 8e 3d ff 90 b0 3d
       -0.047354784 0.034369275 0.06935258 0.08621406
000070 a2 4d 32 3d f6 9e 27 3d 1f ab 81 3c 60 0f 0a 3d
       0.043531068 0.04092308 0.015828667 0.03370607
000080 ae dd ef 3d c9 26 de 3c 02 69 7d 3c 9c e7 c8 3d
       0.11712204 0.027118104 0.01546693 0.09809801
000090 42 4a 19 3d ef ee 1a bc 1d 86 c2 bc 4d 3f 19 bc
       0.037424333 -0.00945638 -0.02374559 -0.009353471
0000a0 5a 7f 09 3d 50 bf c6 3d bb 6e a7 3d 64 8f 18 3d
       0.033568718 0.09704459 0.08175417 0.037246123
0000b0 d3 b9 08 3d 07 d5 1f be 04 7d 58 3d d3 5e 78 3d
       0.03338034 -0.15608607 0.0528536 0.060637306
0000c0 5a 68 45 bd 88 5c 94 3d 9d 1a 85 bd 7c 28 0d be
       -0.04819522 0.072442114 -0.06499217 -0.13784975
0000d0 5b 10 4d 3d f6 59 2a 3d 73 3a 2a 3d 20 b9 af bd
       0.050064426 0.0415897 0.041559648 -0.08580232
0000e0 3c 94 1e 3d 46 99 f7 3c 46 9d 1a be 1f 15 81 3d
       0.038715586 0.030224454 -0.15099058 0.06302857
0000f0 f2 17 2f bc 35 31 3e 3d 39 e4 16 be 71 1e 33 3d
       -0.010686861 0.046433646 -0.14735498 0.043730203
000100 1b 28 11 3d 5e 23 11 3e 22 bb 3b 3d 0f 1d 6c 3d
       0.03543864 0.14173648 0.04583276 0.0576449
000110 3a fd 12 3d 08 74 0e 3d e2 a1 b3 3d 9f 86 14 3e
       0.035886027 0.034778625 0.08771111 0.14504479
000120 b4 4b 7f 3d cc 8e 36 3d bf c4 fc ba 5c 53 5c 3d
       0.062328056 0.044569775 -0.0019284709 0.053790435
000130 12 dc b7 3d a0 14 4f 3c 32 a2 eb 3d 00 0c 25 3c
       0.08977522 0.012639195 0.11505546 0.010073662
000140 81 4f a6 3d 8b 90 9c 3d 9f 26 8a 3d 02 76 19 3d
       0.08120633 0.07644757 0.06745648 0.037466057
000150 53 42 74 3d fa 63 40 3d 8e fb 3e 3d 1f 56 dc 3d
       0.059633564 0.046970345 0.04662662 0.10758614
000160 56 b5 92 3d 2d d2 a9 bc 3c 6a c2 3d f5 7d 93 3d
       0.07163493 -0.020730102 0.09492919 0.07201759
000170 be 14 2b 3d 0b b9 c2 3d ad b2 8b 3d b3 25 09 3d
       0.04176783 0.095079504 0.06821189 0.03348322
000180 5a 17 86 bd cf 32 78 3d 21 34 8e 3d 0d 57 d1 3d
       -0.06547423 0.06059533 0.069435365 0.10221682
000190 64 e7 3d 3d a5 9b 99 3c 30 56 5c 3d 72 c6 b9 3d
       0.04636325 0.018750975 0.053793132 0.090710536
0001a0 4e 5f a4 3c a6 02 5a 3d a6 c1 c4 3d 62 0c 13 3d
       0.020064976 0.053225182 0.09607248 0.03590048
0001b0 36 1f 21 3c 91 18 73 3d 40 63 81 3d 52 a5 13 3d
       0.009834101 0.0593496 0.063177586 0.036046334
0001c0 41 72 6b 3b df 54 28 3d c5 50 b5 3b a8 e7 1b 3e
       0.0035926255 0.041096564 0.00553331 0.15225089
0001d0 9d 34 b8 3a 6d 94 55 3d de 79 b1 3d 90 48 55 3d
       0.0014053766 0.052143503 0.086658224 0.052071154
0001e0 8d 81 96 3d 81 8b 42 3d 11 99 b8 3d 37 dd 16 3e
       0.073489286 0.047496323 0.0901357 0.14732824
0001f0 cd a5 91 bc c4 29 cd 3d b9 2e 2c 3d 09 a3 13 3b
       -0.017779255 0.10017732 0.042036746 0.0022527596
000200 79 9d 0c bd 56 a8 aa bd 2b bc aa bd e4 60 55 bc
       -0.034329865 -0.08332889 -0.083366714 -0.013023589
000210 e4 29 e4 bb 5c 81 8b 3d e7 37 54 3b bd 99 41 3c
       -0.0069630016 0.06811783 0.0032381953 0.011816439
000220 01 71 0d bd bd 86 43 bc ab 84 18 3d 04 86 b4 bd
       -0.034531597 -0.01193398 0.037235897 -0.08814624
000230 b1 d3 d6 bc 32 8f cc 3d cb 01 cd 3d 52 4a b2 3d
       -0.02622399 0.0998825 0.100101076 0.08705582
000240 f6 53 a8 bc 26 38 78 bb 3a 67 8f 3c d5 13 05 bd
       -0.020547848 -0.0037875264 0.017505277 -0.032489616
000250 c9 42 a4 bc d2 05 88 3d 48 43 96 ba 85 ab e4 3d
       -0.020051377 0.06641735 -0.0011464143 0.11165527
000260 18 dd 1c 3c 96 ce 61 bd 4a 1b 45 bd 1d de 89 bd
       0.009574197 -0.055128656 -0.048121728 -0.06731818
000270 05 94 0c 3d 63 81 c4 3d ca e8 46 3d f1 54 da 3d
       0.03432085 0.09594991 0.04856185 0.106607325
000280 07 ed ad bd e1 88 01 3c 4e e0 33 3d aa aa 68 bd
       -0.08492475 0.00790617 0.043915085 -0.056803383
000290 7a b9 bd bb 1e dc 97 3d 83 d7 e4 3c de 5c ef bd
       -0.005789933 0.07415031 0.027934795 -0.11687635
0002a0 95 32 4c 3d 35 a5 9c 3d d5 11 ff 3c 9d 56 15 3c
       0.049852926 0.07648698 0.031136433 0.0091148885
0002b0 01 74 17 bd 5e f9 e4 3a b4 e1 ab bb 07 6a 91 3b
       -0.036975864 0.0017469337 -0.005245412 0.0044376883
0002c0 2d e3 b1 bc 5b 8b ac bd 97 99 1d bd 13 f7 31 bd
       -0.021714771 -0.084250174 -0.038476553 -0.04344852
0002d0 37 e0 46 bc 34 33 97 bd b8 4c 70 bd 54 cc f2 3c
       -0.012138418 -0.07382813 -0.058666915 0.029638447
0002e0 c7 8b 0e 3d fc f3 da 3c f5 f6 27 bd 82 4a 97 bd
       0.03480127 0.026727669 -0.041007 -0.07387258
0002f0 e2 00 03 3d e0 0f d8 3d 3e df f8 3c ad 99 89 bd
       0.031983264 0.10549903 0.030379888 -0.067187645

unstack2 f4 [192]
000000 ea 97 ba ba 25 27 61 3b b4 c0 6c 3e eb 8e 46 3d
       -0.0014235948 0.0034355607 0.23120385 0.04847614
000010 45 66 09 3e 93 88 76 bd 3c e9 5e 3d 05 eb 75 3d
       0.13417919 -0.06018884 0.05442165 0.060038585
000020 91 9f 3b 3d 1d a4 8a 3d 33 8d 1f be e5 fc 48 3d
       0.04580647 0.067695834 -0.15581207 0.049069304
000030 8c b9 34 3e 80 bb 50 3d ef a6 0e bd 44 28 53 3e
       0.17648906 0.050960064 -0.03482717 0.20620829
000040 60 7e 63 ba 8b 48 13 3e 85 6f 87 bd 64 74 b1 3c
       -0.0008678194 0.14383142 -0.066130675 0.021661945
000050 48 bf 2f 3d fc 4c 93 3d f8 1f 80 bc 2e 96 e2 3c
       0.04290703 0.07192418 -0.015640244 0.027659502
000060 67 60 3c bd 8e 43 94 3d 13 c8 06 3e d8 0a 91 bc
       -0.045990374 0.072394475 0.1316226 -0.017705366
000070 01 46 fe 3d 50 46 e5 3d f7 98 a0 bc 6a d7 00 3e
       0.12415696 0.11195052 -0.01960419 0.12582174
000080 09 aa 03 3e 02 e8 2a bd 00 6b 2e 3d af 61 bc bd
       0.12857832 -0.041725166 0.042582512 -0.09198319
000090 cf 80 5e bc de 69 ae 3c 83 c2 00 3d 8e 6b 3a bd
       -0.013580515 0.021290716 0.0314355 -0.04551273
0000a0 c1 98 02 3e eb d2 04 3e e2 49 f3 3c c4 f6 f5 3d
       0.12753583 0.12971084 0.029698316 0.120099574
0000b0 fb ec 63 bd 4f 8a 8e 3d a0 12 57 3d 8d 53 aa 3d
       -0.055645924 0.06959974 0.052507997 0.08316717
0000c0 88 a3 fd 3b fd d0 95 3b 32 64 b7 3d 46 5a 0b bb
       0.0077404417 0.0045720325 0.089546576 -0.0021263524
0000d0 97 d2 04 3e 7a 23 ea 3d 33 bb 1c 3c 02 00 a1 bc
       0.12970959 0.11432548 0.009566116 -0.019653324
0000e0 df d7 97 3c 9d 57 04 bd 83 53 94 3c 8e fb 6d bd
       0.018535553 -0.032310117 0.018106228 -0.05810123
0000f0 df c1 94 3d 62 da 28 3d 85 4d 17 3c 44 46 b8 3d
       0.072635405 0.04122389 0.009234791 0.08997777
000100 b4 e3 c9 3c 5f d3 04 3c 1e 40 00 3e 90 bb cb bc
       0.02464471 0.008107035 0.12524459 -0.02486971
000110 85 8e de 3d 76 87 b3 bc ed 90 2b 3d 2f 84 65 3d
       0.10867027 -0.021915179 0.04188626 0.056034263
000120 11 54 92 3d f6 e7 f8 3c 7b e9 c0 3d cb 9a 65 3c
       0.07144941 0.030384045 0.09419533 0.014013956
000130 60 e4 2b bd 0e 03 e1 3d 66 46 4f 3d 1f 4f ff 3d
       -0.041965842 0.10986911 0.050604247 0.12466263
000140 20 40 38 3d 63 9f 66 3c 14 f2 46 3b 89 da 08 3d
       0.04498303 0.014076087 0.0030356692 0.033411536
000150 73 d7 bc 3c f5 b6 0f bd ec ab d6 bc 8c b5 ae 3d
       0.023051953 -0.03508659 -0.026205026 0.08530721
000160 be d2 92 3c b8 21 59 3d 05 2b 3b 3d 9c 06 48 3d
       0.017922755 0.053010672 0.045695323 0.04883443
000170 e7 1e 9d 3c b2 07 10 3d 82 3a 7e 3d 55 08 5c 3d
       0.019179774 0.03516359 0.062067516 0.053718884
000180 cf 37 c9 3d 64 43 23 3d 18 85 25 bc 9a fa ae 3d
       0.09825098 0.03985919 -0.010102533 0.08543892
000190 b6 e5 90 3c e4 cc 8c 3d 0a 54 48 3d 07 3a 54 3d
       0.01768766 0.06875017 0.04890827 0.05181315
0001a0 ba be 08 3c e9 91 47 3e b5 41 1b 3d 14 3d 4e 3b
       0.008346254 0.19489254 0.03790446 0.003146951
0001b0 b5 fb 89 3c 96 e2 a9 3c f8 69 44 3d e8 fa 75 3d
       0.016843656 0.020737927 0.047952622 0.060053736
0001c0 bc ee 4d 3d f5 b2 a4 3d 65 98 d1 3d 06 50 f5 ba
       0.050276503 0.08041946 0.10234145 -0.0018715865
0001d0 ff 71 dd 3c d1 70 61 3d 86 f2 63 3d 8d b7 07 bd
       0.027031897 0.05503923 0.05565121 -0.033134032
0001e0 8f 76 c7 bc 82 09 c1 3c b2 54 db 3d d7 e7 13 3d
       -0.024348525 0.023564104 0.10709514 0.03610977
0001f0 7d 41 45 3d 91 01 06 bc 25 04 d2 bb f4 85 73 3d
       0.048158158 -0.008179084 -0.0064091855 0.05945392
000200 1c 8c 35 3d dc 2c 29 bd 84 f8 f6 3d a7 a2 d6 3d
       0.04432307 -0.041302547 0.12059119 0.10480242
000210 84 bc 32 3d e0 bf 8a 3d 14 c5 f1 bd b5 e4 b8 3d
       0.043636814 0.067748785 -0.11805168 0.090279974
000220 9b 43 cb 3d 1e bc 1d be d8 c7 07 bd 8d 83 7d 3d
       0.09925004 -0.15403792 -0.03314957 0.061893035
000230 2c 67 01 3e bb b8 a6 3d 01 e2 4b 3d b4 17 1f 3d
       0.12637013 0.08140703 0.04977608 0.038840964
000240 70 33 b9 bd 5c 66 f6 3c 91 d7 cd 3a a0 50 63 bd
       -0.09043014 0.030078106 0.0015704503 -0.055496812
000250 36 27 8a 3d 09 68 c3 3b e4 b5 1d bd 7c 9a 54 be
       0.0674576 0.0059633297 -0.038503543 -0.20762056
000260 c6 da 42 3d 6e e6 48 bd de 26 b9 3d 2f dd b1 bd
       0.04757192 -0.04904788 0.090406165 -0.086847655
000270 16 a2 0a bd a5 b4 f7 3b 0f fc 54 3d e9 77 16 bd
       -0.033845983 0.0075593763 0.051998194 -0.03673545
000280 da 36 e7 3d 41 6d 08 be 4e d2 7b 3c 05 a0 f0 3d
       0.11289759 -0.13322927 0.015369965 0.11749271
000290 8e 76 b8 3d ef 75 1f bd 20 f1 cc 3d 6f 5f 4b 3e
       0.090069875 -0.03893083 0.100069284 0.19860624
0002a0 98 b5 a1 bd d0 d7 bb 3c 66 ac 04 be 8e 95 70 bd
       -0.078959644 0.022930056 -0.1295639 -0.058736376
0002b0 31 23 1c 3c a8 bb de 3c 72 2f 35 be 92 cb 08 3d
       0.009529875 0.02718909 -0.1769388 0.033397265
0002c0 12 9e 62 be be 21 05 be e3 58 b2 3d 04 25 18 bd
       -0.22130612 -0.13001153 0.0870836 -0.037144676
0002d0 fd 69 1a be ca c5 93 bd a3 42 ce 3c aa 26 47 3d
       -0.15079494 -0.0721546 0.02517826 0.048620857
0002e0 a1 2d d7 bd ef e8 39 3d 9e 0b ba ba f2 b6 cf bd
       -0.1050675 0.04538816 -0.0014194136 -0.10142316
0002f0 25 d9 c9 3d 1f 60 78 3d 7b 4d c9 3d 29 63 5f 3d
       0.0985587 0.060638543 0.09829231 0.054537926

unstack3 f4 [192]
000000 ea 97 ba ba 25 27 61 3b b4 c0 6c 3e eb 8e 46 3d
       -0.0014235948 0.0034355607 0.23120385 0.04847614
000010 45 66 09 3e 93 88 76 bd 3c e9 5e 3d 05 eb 75 3d
       0.13417919 -0.06018884 0.05442165 0.060038585
000020 91 9f 3b 3d 1d a4 8a 3d 33 8d 1f be e5 fc 48 3d
       0.04580647 0.067695834 -0.15581207 0.049069304
000030 8c b9 34 3e 80 bb 50 3d ef a6 0e bd 44 28 53 3e
       0.17648906 0.050960064 -0.03482717 0.20620829
000040 60 7e 63 ba 8b 48 13 3e 85 6f 87 bd 64 74 b1 3c
       -0.0008678194 0.14383142 -0.066130675 0.021661945
000050 48 bf 2f 3d fc 4c 93 3d f8 1f 80 bc 2e 96 e2 3c
       0.04290703 0.07192418 -0.015640244 0.027659502
000060 67 60 3c bd 8e 43 94 3d 13 c8 06 3e d8 0a 91 bc
       -0.045990374 0.072394475 0.1316226 -0.017705366
000070 01 46 fe 3d 50 46 e5 3d f7 98 a0 bc 6a d7 00 3e
       0.12415696 0.11195052 -0.01960419 0.12582174
000080 09 aa 03 3e 02 e8 2a bd 00 6b 2e 3d af 61 bc bd
       0.12857832 -0.041725166 0.042582512 -0.09198319
000090 cf 80 5e bc de 69 ae 3c 83 c2 00 3d 8e 6b 3a bd
       -0.013580515 0.021290716 0.0314355 -0.04551273
0000a0 c1 98 02 3e eb d2 04 3e e2 49 f3 3c c4 f6 f5 3d
       0.12753583 0.12971084 0.029698316 0.120099574
0000b0 fb ec 63 bd 4f 8a 8e 3d a0 12 57 3d 8d 53 aa 3d
       -0.055645924 0.06959974 0.052507997 0.08316717
0000c0 88 a3 fd 3b fd d0 95 3b 32 64 b7 3d 46 5a 0b bb
       0.0077404417 0.0045720325 0.089546576 -0.0021263524
0000d0 97 d2 04 3e 7a 23 ea 3d 33 bb 1c 3c 02 00 a1 bc
       0.12970959 0.11432548 0.009566116 -0.019653324
0000e0 df d7 97 3c 9d 57 04 bd 83 53 94 3c 8e fb 6d bd
       0.018535553 -0.032310117 0.018106228 -0.05810123
0000f0 df c1 94 3d 62 da 28 3d 85 4d 17 3c 44 46 b8 3d
       0.072635405 0.04122389 0.009234791 0.08997777
000100 b4 e3 c9 3c 5f d3 04 3c 1e 40 00 3e 90 bb cb bc
       0.02464471 0.008107035 0.12524459 -0.02486971
000110 85 8e de 3d 76 87 b3 bc ed 90 2b 3d 2f 84 65 3d
       0.10867027 -0.021915179 0.04188626 0.056034263
000120 11 54 92 3d f6 e7 f8 3c 7b e9 c0 3d cb 9a 65 3c
       0.07144941 0.030384045 0.09419533 0.014013956
000130 60 e4 2b bd 0e 03 e1 3d 66 46 4f 3d 1f 4f ff 3d
       -0.041965842 0.10986911 0.050604247 0.12466263
000140 20 40 38 3d 63 9f 66 3c 14 f2 46 3b 89 da 08 3d
       0.04498303 0.014076087 0.0030356692 0.033411536
000150 73 d7 bc 3c f5 b6 0f bd ec ab d6 bc 8c b5 ae 3d
       0.023051953 -0.03508659 -0.026205026 0.08530721
000160 be d2 92 3c b8 21 59 3d 05 2b 3b 3d 9c 06 48 3d
       0.017922755 0.053010672 0.045695323 0.04883443
000170 e7 1e 9d 3c b2 07 10 3d 82 3a 7e 3d 55 08 5c 3d
       0.019179774 0.03516359 0.062067516 0.053718884
000180 cf 37 c9 3d 64 43 23 3d 18 85 25 bc 9a fa ae 3d
       0.09825098 0.03985919 -0.010102533 0.08543892
000190 b6 e5 90 3c e4 cc 8c 3d 0a 54 48 3d 07 3a 54 3d
       0.01768766 0.06875017 0.04890827 0.05181315
0001a0 ba be 08 3c e9 91 47 3e b5 41 1b 3d 14 3d 4e 3b
       0.008346254 0.19489254 0.03790446 0.003146951
0001b0 b5 fb 89 3c 96 e2 a9 3c f8 69 44 3d e8 fa 75 3d
       0.016843656 0.020737927 0.047952622 0.060053736
0001c0 bc ee 4d 3d f5 b2 a4 3d 65 98 d1 3d 06 50 f5 ba
       0.050276503 0.08041946 0.10234145 -0.0018715865
0001d0 ff 71 dd 3c d1 70 61 3d 86 f2 63 3d 8d b7 07 bd
       0.027031897 0.05503923 0.05565121 -0.033134032
0001e0 8f 76 c7 bc 82 09 c1 3c b2 54 db 3d d7 e7 13 3d
       -0.024348525 0.023564104 0.10709514 0.03610977
0001f0 7d 41 45 3d 91 01 06 bc 25 04 d2 bb f4 85 73 3d
       0.048158158 -0.008179084 -0.0064091855 0.05945392
000200 23 37 31 3d 68 2d 7f 3c 28 29 93 3d 7b d6 22 bc
       0.043265473 0.015574791 0.07185584 -0.009938831
000210 52 ce 87 3b 13 fc 1b 3d f6 e0 00 bd 13 e9 cd 3b
       0.0041444683 0.038082194 -0.03146454 0.006283888
000220 1c 2e b8 3c 09 bf 0b 3c 78 2c 61 bd 1e e3 3a bc
       0.022482924 0.008529433 -0.05497405 -0.011406688
000230 1f 50 27 3c 8b f2 06 3d fe 29 83 bc 22 0b f1 bc
       0.010211973 0.03294615 -0.016011234 -0.029424254
000240 c9 ca 4e bc 6a f7 57 3d 94 7f 87 3a 13 bd 31 bd
       -0.01262159 0.052726187 0.0010337704 -0.043393206
000250 95 bb e9 3c 56 ea bb bd e4 6b da 3a ac 2b 5d bd
       0.028531829 -0.091755554 0.0016664234 -0.053996727
000260 5d 3d b1 3d f4 08 45 3d 8a 5e 5f 3d b2 a8 ea 3c
       0.08654282 0.04810424 0.05453352 0.028644893
000270 50 cd f0 bd 66 27 96 bc ae a0 1b bc 86 bc 23 bc
       -0.1175791 -0.018329334 -0.009498758 -0.009993678
000280 63 d5 a9 3d 6c d7 03 be 85 e0 60 bd 57 87 21 3d
       0.082926534 -0.12875146 -0.05490162 0.03943571
000290 da 68 3d bc 41 f9 52 bd 11 15 36 3d d2 fe 46 3d
       -0.011560643 -0.05150724 0.044453684 0.04858286
0002a0 77 61 60 bc ac 40 54 3c b7 16 4b bd 2c 03 bb bc
       -0.013695112 0.012954872 -0.04958221 -0.02282866
0002b0 96 fd 43 3d c6 7b c0 bd 49 22 1b bd 37 c4 1d 3c
       0.04784926 -0.09398608 -0.037874494 0.009629301
0002c0 b7 06 cc bd 35 cc c2 bd d4 9a 70 3d bc cd 8c bd
       -0.09962218 -0.09511606 0.058741406 -0.06875178
0002d0 2f bc 53 bd f3 6c 90 3c f0 5f 9c 3c 6c 9a 8a bd
       -0.051693138 0.017630076 0.019088715 -0.06767735
0002e0 cf 2a 1e bd c6 08 5b 3c d5 c4 8e bc 9c dd f4 bd
       -0.038615044 0.013368791 -0.017427841 -0.11956331
0002f0 57 f4 bd 3c fa dd 7f bc 13 35 0e 3c 8c 19 b3 3c
       0.0231878 -0.015616888 0.008679646 0.021862768

unstack4 f4 [96]
000000 c1 20 46 be d0 0f 22 be 6a c7 ea bd 37 2f 41 be
       -0.19348432 -0.15826344 -0.114638165 -0.18865667
000010 d4 32 16 be 94 e1 f3 bd d3 91 58 bd ff 13 27 be
       -0.14667827 -0.1190826 -0.052873444 -0.16316222
000020 f5 94 8d be 1c c9 e4 bd ab 57 0a be 07 8b b9 bd
       -0.27652708 -0.11171171 -0.13510005 -0.090597205
000030 89 98 0f be 28 ee 67 be 81 b1 34 be 96 60 a9 bc
       -0.14023031 -0.22649443 -0.17645837 -0.020675939
000040 47 cd 0d 3d 06 d5 0b be 06 c1 82 bd 92 c0 60 bd
       0.034619596 -0.1365548 -0.063844725 -0.05487115
000050 b1 92 61 3d a6 42 dd bc 05 2d a9 bd 66 13 13 be
       0.055071536 -0.02700932 -0.0826054 -0.14362869
000060 b7 69 c7 bd cc 1f a8 bd a4 e7 16 be a9 b9 08 be
       -0.097369604 -0.0820919 -0.14736801 -0.13352074
000070 13 cf 8e bd 10 85 e3 bd 18 7f c2 bc 2b 0b 86 bd
       -0.0697309 -0.11109364 -0.023742244 -0.06545099
000080 f3 33 b3 3c bd 80 33 3d a6 ac a4 3c 1c fc 58 3c
       0.021875357 0.043823946 0.020101856 0.013243701
000090 38 9c b6 3d 3f b4 62 3d e4 d0 75 3d 4e be ab 3d
       0.08916515 0.055347677 0.060013667 0.08385907
0000a0 01 82 fd 3d b7 91 dc 3c 33 68 88 3c 8f d7 a3 3d
       0.12378312 0.026924951 0.016651249 0.08000099
0000b0 05 2b 0d 3e 9c e0 13 3d b5 06 26 3d 18 64 60 3d
       0.13785942 0.036102876 0.04053374 0.054782957
0000c0 2e 54 e2 3d f0 84 f7 3c d1 db 7c 3d 10 07 30 3d
       0.11051212 0.030214757 0.06173307 0.042975485
0000d0 37 bf d6 3c 2c d8 17 3d b5 4e 9d 3c 2f 5c c0 3d
       0.026214225 0.037071392 0.01920257 0.093925826
0000e0 3c 19 ec 3d 23 04 d5 3d 24 f5 02 3d ca 8b ef 3d
       0.115282506 0.1040118 0.031972066 0.116965845
0000f0 28 85 b1 bc e4 88 1f 3d 05 88 c8 3d a2 5c 19 3e
       -0.02166994 0.03894891 0.09791569 0.14976743
000100 09 da b0 3b 13 d6 85 3d f8 80 b5 3d c2 5d 49 3d
       0.0053970856 0.06534972 0.088624895 0.04916168
000110 be 76 e9 bd 19 74 08 be 7e 31 7d 3d a2 74 3a 3e
       -0.113996014 -0.13325538 0.061814778 0.18208554
000120 fb 91 ec 3c 03 a6 9b bc 42 86 e8 bd f9 4e 3f 3e
       0.028878203 -0.019000059 -0.11353733 0.1868247
000130 15 1d c8 3d 92 0e 62 3d f4 4d 25 3c ad 30 72 bd
       0.09771172 0.055189677 0.010089386 -0.059128452
000140 fa c9 b1 3d 9d 3a a7 bd 32 b2 2d 3e 75 a3 70 3c
       0.08681102 -0.081654765 0.16962507 0.014687409
000150 a8 b2 90 3c e0 50 e5 b7 41 6b 72 bd e8 d0 f5 bd
       0.017663315 -2.7336588e-05 -0.059184317 -0.12002736
000160 77 b2 8e 3d c8 92 6a bd f2 d8 aa 3d ac 07 c5 3d
       0.06967633 -0.057268888 0.0834216 0.09620604
000170 00 92 9d b9 c6 a8 9e bc 14 91 0e bd 4c 5c cb 3c
       -0.00030054152 -0.019367587 -0.034806326 0.024824284

unstack5 f4 [96]
000000 c1 20 46 be d0 0f 22 be 6a c7 ea bd 37 2f 41 be
       -0.19348432 -0.15826344 -0.114638165 -0.18865667
000010 d4 32 16 be 94 e1 f3 bd d3 91 58 bd ff 13 27 be
       -0.14667827 -0.1190826 -0.052873444 -0.16316222
000020 f5 94 8d be 1c c9 e4 bd ab 57 0a be 07 8b b9 bd
       -0.27652708 -0.11171171 -0.13510005 -0.090597205
000030 89 98 0f be 28 ee 67 be 81 b1 34 be 96 60 a9 bc
       -0.14023031 -0.22649443 -0.17645837 -0.020675939
000040 47 cd 0d 3d 06 d5 0b be 06 c1 82 bd 92 c0 60 bd
       0.034619596 -0.1365548 -0.063844725 -0.05487115
000050 b1 92 61 3d a6 42 dd bc 05 2d a9 bd 66 13 13 be
       0.055071536 -0.02700932 -0.0826054 -0.14362869
000060 b7 69 c7 bd cc 1f a8 bd a4 e7 16 be a9 b9 08 be
       -0.097369604 -0.0820919 -0.14736801 -0.13352074
000070 13 cf 8e bd 10 85 e3 bd 18 7f c2 bc 2b 0b 86 bd
       -0.0697309 -0.11109364 -0.023742244 -0.06545099
000080 f3 33 b3 3c bd 80 33 3d a6 ac a4 3c 1c fc 58 3c
       0.021875357 0.043823946 0.020101856 0.013243701
000090 38 9c b6 3d 3f b4 62 3d e4 d0 75 3d 4e be ab 3d
       0.08916515 0.055347677 0.060013667 0.08385907
0000a0 01 82 fd 3d b7 91 dc 3c 33 68 88 3c 8f d7 a3 3d
       0.12378312 0.026924951 0.016651249 0.08000099
0000b0 05 2b 0d 3e 9c e0 13 3d b5 06 26 3d 18 64 60 3d
       0.13785942 0.036102876 0.04053374 0.054782957
0000c0 2e 54 e2 3d f0 84 f7 3c d1 db 7c 3d 10 07 30 3d
       0.11051212 0.030214757 0.06173307 0.042975485
0000d0 37 bf d6 3c 2c d8 17 3d b5 4e 9d 3c 2f 5c c0 3d
       0.026214225 0.037071392 0.01920257 0.093925826
0000e0 3c 19 ec 3d 23 04 d5 3d 24 f5 02 3d ca 8b ef 3d
       0.115282506 0.1040118 0.031972066 0.116965845
0000f0 28 85 b1 bc e4 88 1f 3d 05 88 c8 3d a2 5c 19 3e
       -0.02166994 0.03894891 0.09791569 0.14976743
000100 6b 7a 07 3b 5f 2c 2e bc 5f b9 a6 bc ad 30 e6 bd
       0.0020672332 -0.010630696 -0.020352064 -0.11239753
000110 ea 03 94 bd a6 16 c0 bb 4d 73 9a bc 5e 57 4e bd
       -0.07227309 -0.005862075 -0.018853808 -0.05037629
000120 a4 7a 7c 3d cb 6f c7 3c 42 d9 e1 b9 ac c2 27 3d
       0.061640397 0.0243453 -0.00043077214 0.040957138
000130 20 0f 0d 3c ec d9 86 bc c4 7e 14 3c 8d 8b c0 bc
       0.008609563 -0.016461335 0.009063426 -0.023504043
000140 c4 f7 4f 3d 62 ee bc 3c 7d 2a 62 3d 38 34 7f 3d
       0.050773397 0.023062889 0.0552163 0.06230566
000150 0c 33 22 bd 9f a4 85 3c d8 13 db 3c 20 13 ac 3c
       -0.039599463 0.016313849 0.02674286 0.021005213
000160 e8 da 62 3d 5c cd cd bc 26 a1 01 bb 9e 16 00 3d
       0.055384547 -0.025122337 -0.001977989 0.03127157
000170 9c 76 49 bd 20 a0 18 3d f9 96 49 bc ee ef 0b bc
       -0.04918538 0.037262082 -0.012304061 -0.00854109

unstack6 f4 [96]
000000 db 84 a3 bd e6 c1 e6 bd 48 4b 1a be 96 e4 97 3d
       -0.079843245 -0.11267452 -0.1506778 0.07416646
000010 ff 70 c0 bd 4c 60 d8 3d 85 1b 64 be d8 0b 47 be
       -0.09396552 0.10565242 -0.22276123 -0.19438112
000020 cd 44 94 bd b6 3a 8b 3c c0 09 3e be 49 01 e1 bd
       -0.07239685 0.016995769 -0.18558407 -0.10986573
000030 bc c8 68 bd 54 fd 66 bd 4a 3c ab bd 32 ac 41 be
       -0.05683206 -0.056393936 -0.083611086 -0.18913344
000040 28 a6 00 be 5f 1e d1 bc b7 72 fe 3c e6 c9 08 be
       -0.12563384 -0.025527177 0.03106056 -0.13358268
000050 3d e8 1b be 1a c8 dc bd 60 14 1f be 93 99 2c be
       -0.1522531 -0.10780354 -0.15535116 -0.16855459
000060 3e 4d 9b bd c8 f4 a5 bd f5 38 21 bd ff c3 89 be
       -0.07583092 -0.08103329 -0.03936096 -0.26907346
000070 44 cd a1 bd 19 c9 0b be 26 12 c7 bd f9 a8 a0 bd
       -0.079004794 -0.13650931 -0.097202584 -0.07844729
000080 fc d9 80 3d 89 dd 07 3d 0e fe 63 3d dd 25 0c 3d
       0.06291577 0.033170257 0.055662207 0.034215797
000090 d3 0a 12 3d 9c c2 14 3d 17 a0 89 3d ab e1 8f 3d
       0.035654854 0.036318406 0.06719988 0.070254646
0000a0 ab cc 0c 3d 6b d5 d6 3c 55 c0 d3 3d f6 bf 32 3b
       0.034374874 0.026224812 0.10339419 0.0027275062
0000b0 90 26 05 b9 e1 6f 77 3d 38 f5 df 3c ff be 54 3d
       -0.00012698234 0.06040943 0.02733861 0.05193996
0000c0 0a 42 c0 3d 13 8c 85 3d ef c8 2a bd 66 87 9f 3d
       0.09387596 0.06520858 -0.04169553 0.07789497
0000d0 e7 0c 93 3c d5 c8 e3 3d 07 02 f9 3c 34 1c 41 3c
       0.017950488 0.1112229 0.030396475 0.011786509
0000e0 3e 24 66 3d 8d 83 c1 3c 38 a8 3b 3d 38 95 11 bc
       0.056186907 0.023622299 0.045814723 -0.008885674
0000f0 3b 39 b5 3c e7 7b f6 3c c4 10 86 3c 71 15 75 3e
       0.022122016 0.030088378 0.016365416 0.2393396
000100 3a b0 a4 3d da da a2 bd 47 98 4e be 71 1c 31 bd
       0.08041425 -0.07951899 -0.20175277 -0.043240014
000110 10 3a ba 3d bc d5 ca bd fc a4 dc bd 13 c5 d6 bd
       0.09093106 -0.09904048 -0.10773656 -0.10486808
000120 2e 37 80 bd 64 71 9e bd e4 f2 08 bd fc 46 82 3d
       -0.06260525 -0.07736471 -0.033434764 0.063611954
000130 44 7b a6 bd 2c 06 0a be 3b ba 4b 3e 0a 9a 0c be
       -0.0812898 -0.13478917 0.1989526 -0.13730636
000140 ff 11 03 bc 3b b8 61 3d 31 78 e6 3d 6f 30 15 3e
       -0.007999896 0.055107336 0.112533934 0.14569257
000150 21 4d 6c be 5c 6f cb 3d c4 f2 56 bd 6d ea e7 3c
       -0.23076297 0.099333495 -0.052477613 0.028310025
000160 63 17 30 be 50 f8 7e bd a9 de a4 be c0 68 df bc
       -0.17196421 -0.062248528 -0.32201126 -0.027271628
000170 4e ce 16 bd 1c 45 1d 3e cf 5e 7b 3e 81 de 26 3d
       -0.03681784 0.15358394 0.24547885 0.04073954

unstack7 f4 [96]
000000 db 84 a3 bd e6 c1 e6 bd 48 4b 1a be 96 e4 97 3d
       -0.079843245 -0.11267452 -0.1506778 0.07416646
000010 ff 70 c0 bd 4c 60 d8 3d 85 1b 64 be d8 0b 47 be
       -0.09396552 0.10565242 -0.22276123 -0.19438112
000020 cd 44 94 bd b6 3a 8b 3c c0 09 3e be 49 01 e1 bd
       -0.07239685 0.016995769 -0.18558407 -0.10986573
000030 bc c8 68 bd 54 fd 66 bd 4a 3c ab bd 32 ac 41 be
       -0.05683206 -0.056393936 -0.083611086 -0.18913344
000040 28 a6 00 be 5f 1e d1 bc b7 72 fe 3c e6 c9 08 be
       -0.12563384 -0.025527177 0.03106056 -0.13358268
000050 3d e8 1b be 1a c8 dc bd 60 14 1f be 93 99 2c be
       -0.1522531 -0.10780354 -0.15535116 -0.16855459
000060 3e 4d 9b bd c8 f4 a5 bd f5 38 21 bd ff c3 89 be
       -0.07583092 -0.08103329 -0.03936096 -0.26907346
000070 44 cd a1 bd 19 c9 0b be 26 12 c7 bd f9 a8 a0 bd
       -0.079004794 -0.13650931 -0.097202584 -0.07844729
000080 fc d9 80 3d 89 dd 07 3d 0e fe 63 3d dd 25 0c 3d
       0.06291577 0.033170257 0.055662207 0.034215797
000090 d3 0a 12 3d 9c c2 14 3d 17 a0 89 3d ab e1 8f 3d
       0.035654854 0.036318406 0.06719988 0.070254646
0000a0 ab cc 0c 3d 6b d5 d6 3c 55 c0 d3 3d f6 bf 32 3b
       0.034374874 0.026224812 0.10339419 0.0027275062
0000b0 90 26 05 b9 e1 6f 77 3d 38 f5 df 3c ff be 54 3d
       -0.00012698234 0.06040943 0.02733861 0.05193996
0000c0 0a 42 c0 3d 13 8c 85 3d ef c8 2a bd 66 87 9f 3d
       0.09387596 0.06520858 -0.04169553 0.07789497
0000d0 e7 0c 93 3c d5 c8 e3 3d 07 02 f9 3c 34 1c 41 3c
       0.017950488 0.1112229 0.030396475 0.011786509
0000e0 3e 24 66 3d 8d 83 c1 3c 38 a8 3b 3d 38 95 11 bc
       0.056186907 0.023622299 0.045814723 -0.008885674
0000f0 3b 39 b5 3c e7 7b f6 3c c4 10 86 3c 71 15 75 3e
       0.022122016 0.030088378 0.016365416 0.2393396
000100 4b 0e 0e 3c 34 72 59 3d 36 52 4b 3c 93 6b de 3d
       0.0086704 0.05308743 0.012409737 0.10860362
000110 4a 60 12 3c b6 f3 20 3d ae 52 15 bd 91 c8 3b 3d
       0.00893409 0.03929492 -0.036455803 0.045845572
000120 f3 c9 2c 3d 11 26 88 bc f1 0e 83 3b d8 d4 c0 bc
       0.04218478 -0.016619714 0.003999584 -0.023538992
000130 0d 76 62 3c 1b 8c 75 3c 0c 8e fb 3c bd c2 01 bd
       0.013822091 0.014987017 0.030707382 -0.031679858
000140 1a 1f 55 3b 6b 4b 19 bc b0 07 95 bd c9 9d 3d bd
       0.0032519759 -0.00935636 -0.07276857 -0.046293054
000150 f9 3e 1a bd f1 0c f6 bc ca c0 44 3d 21 b2 57 3c
       -0.03765771 -0.030035468 0.04803542 0.013165028
000160 fd c5 0e bc 4d e7 26 bd 85 5d 31 bd 87 9b 25 3d
       -0.008714196 -0.04074793 -0.043302078 0.040431526
000170 1a 49 56 3d 50 ea b5 bc 3d 75 92 bc 47 d8 0c 3d
       0.05231581 -0.022206455 -0.01787817 0.034385946

model_1/output/BiasAdd/ReadVariableOp f4 [69]
000000 14 48 41 3e 1a e7 13 be 46 f6 b4 3b 64 4f 3c 3d
       0.18875152 -0.14443627 0.005522522 0.04597415
000010 49 d5 ed 3d cc 82 f6 bd e7 38 31 be 42 5b 63 bc
       0.116129465 -0.12036666 -0.17306863 -0.013876738
000020 6c a0 14 3d f9 2b 5b bf 2e cc 0b bd 97 9d 48 3d
       0.036285803 -0.8561397 -0.034130268 0.048978414
000030 96 76 a8 3c 15 3a a7 3d d9 2f 93 3d 95 94 54 bd
       0.020564359 0.08165375 0.071868606 -0.05189951
000040 85 56 6a bf ef ab 4e bd d7 17 d5 bd 0d 7c 2d 3d
       -0.9153827 -0.050456937 -0.10404938 0.042354632
000050 d7 44 98 3c b9 df 0b be 5b cc 65 bf ae 71 85 3d
       0.018587513 -0.13659562 -0.89764947 0.06515823
000060 bf 90 4b bd bc 7e c3 39 0d f1 9d 3c 81 bb 7f bc
       -0.049698588 0.00037287723 0.019279981 -0.015608669
000070 ef f1 38 bd ec 7f 24 bc 13 08 d1 bc b3 ee 8f bd
       -0.0451526 -0.010040265 -0.025516545 -0.0702795
000080 a3 99 5a bf 13 05 62 bf f3 13 60 bf c3 00 57 bf
       -0.8539068 -0.8828899 -0.8753044 -0.8398554
000090 e7 6e 70 bd 38 c1 2d 3d bc 6e 40 3c 30 70 f9 3d
       -0.058699515 0.042420596 0.011745151 0.12179601
0000a0 37 60 c6 bc f7 94 05 bc 2b 8a 5c bf 3e 66 e7 3c
       -0.0242158 -0.008153192 -0.8614833 0.028246995
0000b0 64 5c 31 be 66 db 1c be 0b e3 59 bf 58 68 6f bd
       -0.173204 -0.15318069 -0.85112065 -0.05844912
0000c0 12 9a 5f bf 1b 22 59 bf 2d a5 64 bf d1 c9 90 bd
       -0.8734447 -0.84817666 -0.8931454 -0.070697434
0000d0 86 a5 54 bf 8d e0 64 bf d6 9f 5a bf 85 da 67 bf
       -0.8306507 -0.8940514 -0.8540014 -0.9056781
0000e0 34 17 62 bf 00 bd 67 bf b5 b1 57 bf 0a ee 61 bf
       -0.88316655 -0.90522766 -0.84255534 -0.88253844
0000f0 e8 f9 5b bf 02 a6 56 bf 8b a1 86 be 9c 86 b2 bc
       -0.859282 -0.8384706 -0.26295123 -0.021792702
000100 3a 69 67 bf 02 e8 58 bf 11 29 5f bf 60 3a 59 bf
       -0.9039494 -0.84729016 -0.8717204 -0.848547
000110 b5 11 98 3d
       0.07425252

model_1/separable_conv2d_2/separable_conv2d/depthwise f4 [1, 3, 3, 64]
000000 ee a7 e9 3d 39 d4 0f 3d 77 33 cf 3d 03 ee 91 3d
       0.11408983 0.0351145 0.10117238 0.07125475
000010 0a a5 be bc 00 3e 6f 3d 5d 2e b6 3b 9c 28 be bd
       -0.023272056 0.058408737 0.005559726 -0.092850894
000020 72 ea 81 3d ae 2c 29 be 06 d9 63 bd b8 a6 e4 3d
       0.06343545 -0.1652095 -0.05562689 0.111646116
000030 ed 2f 95 3d 7a c4 ee 3d fc 20 13 be 47 b7 98 bd
       0.07284532 0.11658569 -0.14368051 -0.074568324
000040 91 41 de 3d d4 7f 00 3e 2f f0 e4 bd c4 3d cf 3d
       0.108523495 0.12548763 -0.11178624 0.10119203
000050 1c 4c c0 3d ea fe 9d 3d 17 20 c2 bd d7 05 a6 3d
       0.09389517 0.077146366 -0.09478777 0.081065826
000060 f3 27 30 3c 29 f9 ac 3c b1 03 73 3c d2 7d 0e 3d
       0.010751712 0.021114903 0.014832423 0.03478796
000070 01 63 20 bb 6e f8 48 3d 82 67 38 3d 02 c2 88 3d
       -0.0024473073 0.049065046 0.045020588 0.06677629
000080 b8 f2 e4 bd df 23 58 3d 83 7b fb 3d b8 bc e0 3d
       -0.111791074 0.052768584 0.12279417 0.10973495
000090 2b a6 d0 bd 1d e0 e1 3d 4b a9 9f bd 9c 41 c3 bd
       -0.10187944 0.11029074 -0.07795962 -0.09533998
0000a0 93 27 d6 3d 24 b6 8c bd 15 a5 ad bd 12 2a 9a 3d
       0.10456767 -0.06870678 -0.084787525 0.075275555
0000b0 55 04 93 bd 8d 40 9e 3b 31 02 02 3d 9b 98 c4 bd
       -0.07178561 0.0048294724 0.03174037 -0.0959942
0000c0 ee 8e 90 bc f1 1c 19 be 5c 9e 0b be e1 e9 0e 3e
       -0.01764628 -0.14952447 -0.13634628 0.13956405
0000d0 a5 ac b1 bd 6b 76 ec bd d1 24 e3 3d 3a 42 03 3d
       -0.086755075 -0.11546024 0.110910065 0.03204558
0000e0 1d 37 f1 bc be 40 b8 3d 6d 44 16 3a a7 f9 c7 3d
       -0.029445225 0.089967236 0.0005732242 0.09764414
0000f0 1c 5c 81 3d 5e 2b 42 bd 0a ac a9 3c 21 54 06 bd
       0.063163966 -0.04740464 0.020711917 -0.032795075
000100 02 86 16 bc 66 b0 08 3e 5b 15 90 bd 2a bd 93 bd
       -0.009187223 0.1334854 -0.07035323 -0.072138146
000110 9d 7d 5a bd f8 66 d0 3d 89 5a 64 3d b9 37 75 3c
       -0.05334245 0.1017589 0.055750404 0.014966899
000120 80 b3 a3 bd cc 92 6a 3d 49 e2 05 be 8e 2c c1 bd
       -0.07993221 0.057268903 -0.13074602 -0.09432326
000130 c5 4e bb bd c4 01 4f 3d 23 1b 9b 3b d3 22 af 3d
       -0.091458835 0.050538793 0.0047334596 0.08551564
000140 a2 27 dc bd 5a 23 14 bd d7 71 79 bc a5 b7 cb 3d
       -0.10749747 -0.036166526 -0.015224895 0.09947137
000150 c3 17 69 bd b4 af 9a bd 14 46 f1 3d f9 9e 5b 3b
       -0.056907427 -0.07553044 0.117809445 0.0033511503
000160 bf 89 06 3d 7c 3e a2 3d 81 81 3e bd 07 93 78 bb
       0.03284621 0.07922074 -0.046510223 -0.0037929432
000170 0c 8c e6 bd 97 f0 ab bb 68 6e 09 be 89 f9 be 3c
       -0.112571806 -0.0052471864 -0.13421023 0.023312347
000180 3f 6d 57 bb 29 89 52 3c cc 36 08 3d 9d 5a 1e 3d
       -0.0032871512 0.012850084 0.033255383 0.038660634
000190 69 09 20 3d 30 76 db bc f3 e2 75 bd 02 98 1d bc
       0.039071474 -0.026789755 -0.06003089 -0.009618761
0001a0 90 07 97 bd 00 6e 20 bd a1 33 63 3d e4 da 04 bd
       -0.07374489 -0.039167404 0.05546916 -0.032435313
0001b0 73 d7 bf bd be 51 87 bd b2 5f 25 bd eb 7b 96 3d
       -0.093672656 -0.06607388 -0.040374465 0.07347854
0001c0 43 f6 3a 3c 60 40 d4 3b 6f 9a d0 bc 8d fb e4 ba
       0.011411252 0.0064774007 -0.025464265 -0.0017469988
0001d0 76 88 b5 3c f0 35 58 bd 9e df f3 3c e0 aa eb bc
       0.022159796 -0.052785814 0.029769715 -0.028768003
0001e0 bb 2d e0 bd 72 bb aa 3d 05 28 0a 3d 55 6d f0 3c
       -0.109462224 0.083365336 0.03372957 0.029349009
0001f0 03 d6 97 bd fc 04 d1 3c 60 7a e7 3d f3 44 3d bd
       -0.07413866 0.025515072 0.11302638 -0.046208333
000200 c9 15 c7 3d 6b cf 9f bd ae 51 77 bd e0 e7 b6 3d
       0.09720952 -0.07803234 -0.06038063 0.089309454
000210 ac 17 09 be 32 b7 26 3d c8 aa 98 3d 9b d9 86 bd
       -0.13387936 0.040702052 0.07454449 -0.06584474
000220 f0 7c 6f bc 65 00 08 3c e6 7e 10 3d 37 c3 0f 3d
       -0.01461719 0.008300875 0.03527727 0.03509828
000230 ba a0 d7 3d f9 59 6e 3d 92 d5 39 3d 59 0c 11 be
       0.10528703 0.058191273 0.045369692 -0.14164867
000240 0a 1d 39 bd 59 c3 f0 3d b3 a6 40 3d 29 77 c6 3d
       -0.04519371 0.117560096 0.047033977 0.09690697
000250 e7 2c 99 bd 84 fa 1d bc 8b 5e 07 be 05 b8 a5 bd
       -0.074792676 -0.009642247 -0.13219659 -0.080917396
000260 1d 5b d6 3d ca a4 b9 3d f2 30 79 3d 8e fe 24 bd
       0.10466597 0.09064634 0.060837694 -0.040281825
000270 e0 65 71 3d 68 ff fa bb d7 f1 4c 3e eb 72 6b bd
       0.058935046 -0.0076598413 0.2001413 -0.05748264
000280 c6 d6 d2 bd cc 7b 4e bd 57 d3 34 3d 43 57 16 3e
       -0.10294871 -0.05041103 0.044146862 0.14681725
000290 d5 38 3d 3d 50 ef 84 bd 62 f7 f5 bb 14 07 c1 3b
       0.046196777 -0.06490958 -0.007506297 0.0058907364
0002a0 77 70 0e be c3 29 d3 3d 09 bf 83 bd 9c 4f b4 bb
       -0.1391009 0.103107 -0.064329214 -0.0055026542
0002b0 17 1f 95 bc d1 95 02 3d d3 a7 a0 3d 1d 31 52 3d
       -0.018203301 0.031881157 0.0784451 0.05131637
0002c0 ff eb a0 3c e3 04 c4 bc c8 b4 c6 bd b4 ab 76 bd
       0.019643782 -0.023928111 -0.0970245 -0.060222343
0002d0 53 00 67 bd 80 67 d8 bd c1 69 90 3d 95 7c 97 bd
       -0.056396794 -0.10566616 0.07051421 -0.07396809
0002e0 71 ed 28 bc 11 93 d1 bd 09 28 12 be b9 37 8e bc
       -0.010310517 -0.10233129 -0.14273085 -0.017360555
0002f0 c0 ee aa 3d 79 76 61 3d 17 b9 89 bd c9 d6 69 3c
       0.08346319 0.055044625 -0.06724756 0.0142724
000300 a0 df 09 bd 54 36 16 bc de ab 0e bd bb d5 eb 3b
       -0.03366053 -0.009168226 -0.034831874 0.0071971095
000310 78 bb 38 bd f6 fc 87 bc ae e7 34 bd 61 d7 a4 bd
       -0.04510066 -0.016600113 -0.04416626 -0.08048893
000320 11 6a be bc 63 b0 87 bd 27 27 1d be ac 7b 3d 3d
       -0.023243936 -0.0662544 -0.15346967 0.04626052
000330 81 fb 07 be 08 9d 0b 3d 9e 21 f6 bd 48 b8 82 bd
       -0.13279535 0.034085304 -0.12018131 -0.06382805
000340 64 3a 82 bc 97 96 0a bd 21 49 9a bc 7b db c6 3c
       -0.015896983 -0.03383502 -0.018833699 0.024274578
000350 a4 15 5d bd 39 1d 00 3e 06 2c 9c bd a2 bc ee bc
       -0.053975716 0.12511148 -0.07625584 -0.029142682
000360 15 8b 99 3c bb ce 43 3d 6a 7b 14 bd d4 d6 f9 3d
       0.018743077 0.047804575 -0.03625051 0.12199178
000370 0e 77 a8 3d 35 be 10 be be 02 ce bd e2 29 5c 3d
       0.08225833 -0.14135058 -0.10059117 0.05375088
000380 9d 2f 42 bd 09 e7 48 3d 19 ec 7b 3b a1 88 a9 bd
       -0.04740869 0.049048457 0.0038440286 -0.08278013
000390 28 9d 85 3d 19 5f 17 3d 01 e1 4a bd 95 cd e7 bc
       0.06524116 0.036955927 -0.049530987 -0.028296271
0003a0 32 c2 0b bd e4 29 94 bc 46 e3 09 be f6 92 99 bd
       -0.034120746 -0.018086381 -0.13465604 -0.07498734
0003b0 89 1e 8e bd 59 0f f8 bb 75 6e 4e 3d e0 d2 cd 3b
       -0.06939418 -0.007570189 0.05039831 0.006281242
0003c0 95 88 09 3d 97 18 25 3d 96 6a 5f 3d e1 1d 31 bd
       0.03357752 0.040306654 0.054545008 -0.043241385
0003d0 c0 2f 8f 3d ee 20 05 be 5b fa 6e bd 3f 48 47 3d
       0.069915295 -0.13000843 -0.058344226 0.048652884
0003e0 ad 26 87 3c 99 fc ab 3d 5b 77 60 bc 9a 74 f8 bd
       0.016497934 0.083977886 -0.013700332 -0.12131615
0003f0 24 3b d0 bd 97 e5 62 3d 61 0c 90 3d 15 7e 57 bd
       -0.1016753 0.055394735 0.07033611 -0.052610476

model_1/separable_conv2d/BiasAdd/ReadVariableOp f4 [32]
000000 da 5b c5 bc 08 20 a1 3a 40 72 c9 bd a8 44 91 bd
       -0.02409165 0.0012292871 -0.098362446 -0.07093173
000010 75 8a 06 3c f7 ca 48 bd 52 0c 6f 3d d7 64 4e 3c
       0.008211722 -0.049021687 0.05836136 0.012597284
000020 f3 34 cb 3a 9b 0b 37 3d e2 31 f5 bb d5 cf 8b bb
       0.0015503451 0.044688802 -0.007482753 -0.004266719
000030 2f 10 c9 3d d4 10 0d bd c4 be cc 3b fc 06 46 3c
       0.0981754 -0.034439877 0.006248327 0.012086626
000040 b3 67 62 bc cd ce 5e 3c 61 b8 76 3d ad 78 14 3d
       -0.013818669 0.01359911 0.06023443 0.036247898
000050 5d 2f 9c bc 00 d4 56 bb a4 7d 8f bb 69 98 c0 bc
       -0.019065553 -0.003278017 -0.004378991 -0.023510175
000060 87 9d 35 3c 00 c9 e3 3c a4 d2 f3 3b 20 1e 09 3c
       0.011084921 0.027805805 0.007440882 0.008368999
000070 34 ec b2 bc d7 38 89 bc 7c f5 16 bd 1c b6 68 bb
       -0.021841146 -0.016750736 -0.036855206 -0.0035508936
