app/src/main/assets/ml/ocr_model_production_fp16.tflite (tflite, 200000 bytes, 43 tensors)

model_1/batch_normalization_2/FusedBatchNormV3 f4 [128]
00000000: 8bf5 94be d8fc 81be 09a4 43be 1c54 acbe
00000010: bd05 d9be 55d2 aabe d005 bdbe 4d9b 02bf
00000020: 36ca b3be e062 bbbe 248a bcbe 3e72 a2be
00000030: c77d 87be c843 6abe 6ece 9cbe a3f8 49be
00000040: fd4f f3be e110 3ebe a018 a9be 450c e5be
00000050: 5175 bcbe 2167 9ebe 5a07 a9be da75 a5be
00000060: cf80 c0be fe09 edbe 4a57 ddbe de59 c8be
00000070: 37b8 19be 50f8 d7be 6520 a9be 8303 4abe
00000080: ffea 86be dbe3 49be 64c8 e8be b8d2 d5be
00000090: 7065 92be 6e88 26be 5e34 74be 73e6 29be
000000a0: d27c 72be 29fe 37be 0786 cdbe d839 94be
000000b0: 2b23 b4be f306 b2be ca6d a7be 24b5 ebbe
000000c0: 2cbb 39be cdf7 bdbe d2e0 a5be e02a babe
000000d0: c4ee d9be 78d4 c6be d0a4 c0be 3069 abbe
000000e0: 297f 8cbe 9fc9 b1be 7829 53be f7a3 d5be
000000f0: 7999 62be 5d56 6ebe 7f42 a6be ad73 96be
00000100: 90f5 b1be 110e e4be ce28 d0be 0532 abbe
00000110: b927 bdbe 5f2d aebe e64b b3be 09dc 46be
00000120: ea03 85be 94ad 82be c6d9 acbe 67f3 59be
00000130: 1ff7 99be 06be 37be e5dc 5ebe 929a 8ebe
00000140: 8300 d7be b4e3 ddbe ea59 8dbe 223a b2be
00000150: 5f70 e3be 9a45 d5be 531c dfbe b763 c7be
00000160: 68c0 a6bd bcb9 b1be 4410 56be 6c8a bbbe
00000170: f1a7 d5be f4ec aabe cd5f aebe fb0e 79be
00000180: b8cf 87be cd2f 84be 9738 52be f9db 78be
00000190: 47de acbe 68ef a9be 721b bdbe 9b21 48be
000001a0: 735b 65be 8fa8 d1be 5030 58be 438f 75be
000001b0: d61e aabe 77b6 abbe 6aa0 96be 9c2c 13be
000001c0: f2c7 4bbe 67c6 5abe 8824 82be bbf1 97be
000001d0: abcb 9bbe 864a 7dbe c240 66be b94d dfbe
000001e0: e0c8 ddbe 27ee e4be 575c b1be 6b86 aabe
000001f0: 07b9 a0be 739d 71be 4f2c b8be 1325 96be
-0.29093584 -0.25388217 -0.19105543 -0.3365792 -0.4238719 -0.33363596 -0.36918497 -0.5101822
-0.35115212 -0.36598873 -0.36824143 -0.31727785 -0.26463148 -0.22877419 -0.30626243 -0.19723754
-0.47521964 -0.18561126 -0.330266 -0.44735923 -0.36808255 -0.30938056 -0.3301342 -0.32316476
-0.37598273 -0.46296686 -0.4323066 -0.39131063 -0.15011679 -0.42181635 -0.33032528 -0.19727902
-0.26351163 -0.19715826 -0.45465386 -0.41762328 -0.28593016 -0.16262981 -0.23848101 -0.16591816
-0.23680428 -0.17968048 -0.40141317 -0.2895038 -0.3518308 -0.34770927 -0.3270095 -0.46036637
-0.18137807 -0.3710312 -0.32398087 -0.36360836 -0.42564976 -0.38833976 -0.37625742 -0.3347869
-0.27440766 -0.34724137 -0.20621288 -0.41726658 -0.22128858 -0.23275132 -0.32472607 -0.2938513
-0.34757662 -0.44541982 -0.40656132 -0.334366 -0.36944368 -0.3401899 -0.35018843 -0.19419874
-0.2597955 -0.25523055 -0.33759898 -0.21284257 -0.3007135 -0.17943582 -0.21763952 -0.27852303
-0.41992578 -0.43337786 -0.2760766 -0.34809977 -0.4442167 -0.41654664 -0.43576297 -0.38943264
-0.08142167 -0.34712017 -0.20904642 -0.36629045 -0.41729692 -0.33383906 -0.34057465 -0.24322121
-0.26525664 -0.2581772 -0.205294 -0.24302663 -0.33763334 -0.33190465 -0.36935002 -0.1954407
-0.22398166 -0.40948913 -0.2111218 -0.23980431 -0.3322665 -0.33537647 -0.2941926 -0.14372486
-0.19900492 -0.21364747 -0.25418496 -0.29676613 -0.30428824 -0.2473546 -0.2248564 -0.43613985
-0.43317318 -0.44712946 -0.34640762 -0.33305678 -0.31391165 -0.23595218 -0.35971305 -0.2932516

model_1/batch_normalization_2/FusedBatchNormV31 f4 [128]
00000000: 3a52 9440 2bbd 6f40 9198 9340 06a1 9240
00000010: 919b 2140 4178 5340 fc97 9140 b302 0340
00000020: e7a9 4a40 6719 4f40 3960 4940 cb5f 5840
00000030: 3274 9240 9ec2 7940 454e 9540 024f 8640
00000040: b65a 1740 a529 8a40 7522 5040 820b 4340
00000050: d255 5740 f86d 6a40 0218 5540 e20f 4c40
00000060: 3a65 4d40 e062 1940 4931 2a40 ccea 3140
00000070: a95a 8a40 c938 3740 c81e 9040 8c63 8740
00000080: 16f2 9840 8970 8c40 5901 2240 8a20 9140
00000090: 2ddd 5a40 37f4 8940 4424 7240 eedc 8640
000000a0: e09b 7e40 4206 7740 ba90 3e40 7588 6140
000000b0: 666c 9340 1cc7 9440 48e9 4f40 6688 2c40
000000c0: 49ae 8a40 aa5a 4240 166a 5040 6193 9240
000000d0: 1e3c 3440 3341 4b40 7131 7e40 f1f7 4e40
000000e0: c48e 7640 edb6 9440 1b29 9940 dfc8 2a40
000000f0: b572 8c40 17b2 7d40 e8bf 6440 023f 7640
00000100: ee70 5840 0b85 2f40 0693 3740 24ed 5340
00000110: 05cb 2e40 fd76 9640 a940 9040 7bc3 9840
00000120: 90a7 7340 49b4 8c40 9905 9540 c256 8a40
00000130: 47a5 8040 a7ba 8340 f7d6 8b40 1a42 6440
00000140: 9a29 2d40 024f 2e40 55fc 7640 99a2 4440
00000150: 5cb3 1440 ffdd 3640 b071 2840 ac6f 8a40
00000160: 9b85 9b40 bcba 8940 ba31 8240 e8d1 4f40
00000170: 860d 1540 f306 9540 4c9f 6f40 de6d 7740
00000180: f29e 6a40 fd22 8040 da0b 9640 54b7 9840
00000190: ce06 9540 6f46 8840 0ce4 3a40 b12e 8740
000001a0: 754d 8340 403d 3b40 2d3e 9840 7198 8e40
000001b0: 65df 8440 df1d 9340 22be 9340 0acd 9140
000001c0: 6f9e 8740 2bc1 8140 c852 6b40 7234 6540
000001d0: dbf3 8b40 f1ea 7140 6893 8240 a00e 1440
000001e0: e518 2140 72a5 2440 b40e 3d40 ae0e 5940
000001f0: 8fbc 5240 31e2 9840 1fe9 9140 b0a3 6840
4.6350374 3.745921 4.612374 4.582156 2.52512 3.3042147 4.549803 2.0470397
3.16662 3.2359254 3.146498 3.3808467 4.576684 3.9025035 4.6658044 4.1971445
2.3649116 4.3175836 3.252103 3.0475774 3.364613 3.662962 3.3295903 3.1884694
3.2093034 2.3966599 2.6592581 2.7799559 4.323567 2.862841 4.5037575 4.2309017
4.7795515 4.388737 2.5313323 4.535222 3.4197495 4.3110614 3.7834635 4.214469
3.9782639 3.859757 2.9775834 3.5239537 4.606982 4.6493053 3.2486134 2.695825
4.333775 3.0367837 3.256475 4.5804906 2.8161693 3.1758544 3.9717677 3.2338831
3.8524637 4.64733 4.7862678 2.6685102 4.3890023 3.9639947 3.574213 3.8475957
3.3818927 2.7424953 2.8683486 3.311349 2.7311413 4.702025 4.507893 4.7738624
3.8071022 4.3970075 4.6569333 4.3230906 4.0201755 4.1165347 4.369991 3.5665345
2.7056642 2.7235723 3.8591511 3.0724242 2.3234472 2.8572996 2.631939 4.326132
4.8600593 4.3040447 4.06857 3.2471867 2.3289504 4.6570983 3.7440977 3.8660808
3.6659513 4.004271 4.6889467 4.772379 4.6570807 4.258598 2.9201689 4.2244496
4.103205 2.9256134 4.75759 4.4561086 4.15227 4.5973964 4.6169596 4.556279
4.23809 4.05483 3.6769276 3.581326 4.3735175 3.7799647 4.080494 2.3133926
2.5171444 2.572598 2.9540224 3.391521 3.2927587 4.7776113 4.559707 3.6349907

model_1/batch_normalization_1/FusedBatchNormV3 f4 [64]
00000000: 6ddb 85be 6ab4 2ebe d192 f3bd 4c56 40be
00000010: 8389 0bbe 978e ffbd d4ff 39be aac9 8cbe
00000020: 94a2 81be 281d 3cbe b2e4 12be 750c 2fbe
00000030: 84ee 26be d4f8 1dbe 8536 76be 3db5 41be
00000040: 759f 06be 75d4 76be 3128 cdbd d46e 0abe
00000050: c812 19be 3bd7 11be 23bb 35be dd11 03be
00000060: 8439 b7bd 19d5 3abe 2335 2dbe 3dfa 4cbe
00000070: 9940 8bbd f0aa 1bbe bb05 9ebd bab0 69be
00000080: 9e50 8fbd 1834 fbbd 3212 59bd cb92 e4bd
00000090: 55fc 61be ef06 f3bd 7187 e3bd 76c6 85bd
000000a0: 9f36 0cbe b947 36be 05a3 16be a2c3 06be
000000b0: b9a1 2fbe bdc8 28be 5de5 5cbe db30 b0bd
000000c0: 9000 47be 6e22 16be 6ba6 a8bd aaa1 44be
000000d0: 5488 a1be ecc9 c0bd 6d54 82bd 4ec0 39be
000000e0: 03d6 08be 962d d1bd 0b17 f6bd f4c9 71bd
000000f0: 64ac debd 1f46 89be 1ea0 36be 7807 2fbe
-0.2614397 -0.1706101 -0.118932374 -0.1878292 -0.13626675 -0.12478369 -0.18163997 -0.27497607
-0.2531935 -0.18370497 -0.14345053 -0.17094596 -0.16301924 -0.15426952 -0.24044235 -0.18916793
-0.13146766 -0.24104483 -0.100174315 -0.1351884 -0.1494857 -0.1424226 -0.17747168 -0.12799783
-0.08946517 -0.18245353 -0.16914801 -0.20017333 -0.067994304 -0.15201926 -0.07715937 -0.22821322
-0.069977984 -0.122657955 -0.052995868 -0.11160811 -0.22068913 -0.11866557 -0.11109818 -0.06531994
-0.13692711 -0.17800798 -0.14710625 -0.13160565 -0.17151536 -0.16482826 -0.2157187 -0.086030684
-0.19433808 -0.14661571 -0.08234867 -0.19202295 -0.31549323 -0.094135135 -0.06363759 -0.18139765
-0.13362889 -0.10213773 -0.12016114 -0.059030488 -0.10872725 -0.2681131 -0.17834517 -0.17092693

model_1/batch_normalization_1/FusedBatchNormV31 f4 [64]
00000000: 7002 7340 0b98 9540 9e55 9140 562c 9340
00000010: 59a6 9640 dec1 9940 a858 9540 abdc 6840
00000020: bf44 7040 06ce 8940 58f5 8f40 dc31 9540
00000030: 89a8 9740 59b4 8a40 ba3b 7340 04da 8a40
00000040: 0d0c 8d40 1c29 8540 b255 8d40 3778 9340
00000050: 82e6 9a40 7bac 9640 72c7 8940 272f 9340
00000060: 2abd 9440 fde2 9340 70b1 9140 2847 8040
00000070: 270f 9d40 ea29 9540 d3ea 9940 e3c4 9540
00000080: c6b6 9940 f9fc 8b40 7f24 9a40 e4e6 9440
00000090: 5c03 7d40 963a 9440 e031 9440 be8c 9940
000000a0: c6c7 9840 e246 9a40 050d 9040 fbee 9940
000000b0: 6b14 8d40 a442 8c40 bbbe 9540 4497 9640
000000c0: 6f95 7c40 6774 9b40 bf35 9740 eb01 9040
000000d0: 0694 8340 f5df 9940 b1b9 9c40 3764 9440
000000e0: 8d78 9740 ad82 9d40 0fa8 9740 a09d 9a40
000000f0: 8b80 9540 0e09 7e40 432b 8a40 2aca 8340
3.7970238 4.67481 4.5417013 4.599162 4.707806 4.8049154 4.6670723 3.6384685
3.754196 4.3063993 4.498699 4.6623363 4.739323 4.334515 3.8005204 4.339113
4.407721 4.161268 4.416711 4.6084247 4.840638 4.7085547 4.3055964 4.599506
4.6480913 4.6214585 4.55291 4.008686 4.9080997 4.6613665 4.809915 4.680284
4.803561 4.3746305 4.816955 4.653185 3.95333 4.6321516 4.6310883 4.7984304
4.7743864 4.8211527 4.5015893 4.8104224 4.4087424 4.383135 4.6795325 4.705965
3.9466207 4.8579593 4.725311 4.500234 4.1118193 4.8085885 4.8976674 4.6372333
4.7334657 4.9222016 4.739265 4.8317413 4.6719413 3.9693027 4.317781 4.118428

model_1/batch_normalization/FusedBatchNormV3 f4 [32]
00000000: 3c86 42be 0f08 b4bc d19a 36be ca33 a6bc
00000010: 6672 5bbc 869c 7fbe 265c 51bd e513 efbd
00000020: f482 e3bc 8b1d 01bc f440 e6bc 33c7 73be
00000030: 8c5e 2abd ff79 08bd 5ec3 21bd 77e4 bcbc
00000040: e435 01bd 1765 15bc f084 1cbc 885d 89bc
00000050: 7894 0fbd dbdb 88be d497 693c 0dd1 d2bb
00000060: bbe4 e5bd 6d1b 6ebe eae0 5e3c f7b9 50bd
00000070: 638f 68be 9127 b0bc 66bf 62bd 2fa9 1ebd
-0.18996519 -0.021976499 -0.17832495 -0.020288367 -0.013393974 -0.24962053 -0.05111327 -0.116737165
-0.027772404 -0.007880579 -0.028107144 -0.23806457 -0.041594073 -0.03331947 -0.039492957 -0.02305816
-0.031545535 -0.00911834 -0.009553179 -0.016768232 -0.0350537 -0.26730236 0.01425739 -0.006433612
-0.112252675 -0.2325265 0.013603428 -0.0509586 -0.22710948 -0.021503242 -0.055358313 -0.038735565

model_1/batch_normalization/FusedBatchNormV31 f4 [32]
00000000: ce1d 9f40 259b 9f40 f20b 9b40 e6df a140
00000010: e964 9e40 fb2f 9a40 cefd 9f40 c17a 9d40
00000020: feb6 9b40 e92f 9c40 a889 a040 8c60 9c40
00000030: 5a12 9f40 bf1d a140 4c6e 9b40 1d4a 9b40
00000040: f219 a140 8a43 9f40 8394 9f40 058f 9d40
00000050: 55a2 a440 46e5 9b40 6d27 9c40 ff27 9d40
00000060: b3a4 9b40 60a1 9b40 f2f9 9d40 1737 a140
00000070: 2ce6 9840 ae75 9e40 6b28 9f40 8504 9f40
4.9723883 4.9876885 4.845208 5.0585814 4.949818 4.818357 4.999732 4.9212346
4.866088 4.8808484 5.0168037 4.8867855 4.97099 5.034881 4.857214 4.852797
5.034417 4.9769945 4.986879 4.9237084 5.144816 4.8717375 4.8798127 4.9111323
4.863855 4.863449 4.936761 5.037975 4.778097 4.951865 4.973684 4.9693017

unstack f4 [192]
00000000: 8455 23bd e5ee 263c 3806 533c 4e4a 513d
00000010: 19f2 1ebd 9250 72bd b8f2 5bbc d9cf 7e3b
00000020: bc2d 43bc b37a b03c 45b1 0fbc 955b 0abd
00000030: 4567 f6bc 2871 3f3c 7bb6 8f3c 84f4 cd3c
00000040: c36e bcbc d42c 0ebd 5435 fbbc aeac 373c
00000050: 832b 0ebc 21f7 983c f024 63bb 9e6c e13b
00000060: bfcb 26bc 2490 a7bb 71c0 19bc 5cd1 173b
00000070: 78c6 b0bc 55fc b2bc 7f26 3b3b 42dd 863a
00000080: daf9 06bd c06d 82b7 c14e 32bc 92ab 9fbb
00000090: 508e 8a3b 5d86 9dbc 5647 acbc 4fdf fcbb
000000a0: 72b9 31bc 9976 20bd 0aef 02bd ef61 80bc
000000b0: 9fa8 c73c 9791 763c fa1e abbc 6438 8abc
000000c0: d978 bf3c 6295 5dbb 1328 8c3c c2ea c2bc
000000d0: 680f 0cbd 7ea2 173d a77c 823c 7bfb 463c
000000e0: 941d b63c 3049 323b b0a8 743b 7edc 553c
000000f0: 1dbc 1bbc df91 2f3d 6112 55bc ecfb 6bbb
00000100: 3f53 b13b bf69 a33b fb09 cabb 1b2e d1bc
00000110: 00d9 813c c43a df3c fe68 5c3c a366 50bb
00000120: 848b ae3c c7a6 253c e828 443c a52c 43bc
00000130: 18a1 ad3c 536b 403c 9e98 e93b 3c10 35bc
00000140: fd2a 42bc 8c95 a43c d69a 083c 8404 b9bb
00000150: f0f6 763c 7ef1 55bc 7ad4 b13c 294e b43c
00000160: 9e5c 9b3c ba7c 29bd b6a2 5c3c ff79 be3c
00000170: ec8a 1d3d 582c a63c 9a77 46bc fade afbc
00000180: e0ee 853c 5861 2a3d eeb4 a8bc d7a5 8bbb
00000190: a417 2b3c a658 783c af20 ea3c 759d 723c
000001a0: fecd d93c 93b8 13bb 1c4f 3d3c abf7 273c
000001b0: 14a7 583d 1938 bf3c 4b7e 483c d592 433c
000001c0: ac79 bcbc 7e57 e3bb d78c c1bb abf9 4c3c
000001d0: c228 593c 48e8 9bbc 5d5d e43c 8bdb c13c
000001e0: c671 94bb 7a9c a83c 1057 b03c ab07 613c
000001f0: bd42 0abd 7a36 943c bd3b 113d e441 97bc
00000200: 298b 83bc a3ef a43c 81bf 903c 899b 813c
00000210: 2f3a d13b 6bb5 d6bc 1f08 293c 14db 9f3b
00000220: 4b17 87bc f8aa edbb 9585 72bc a6bd 94bc
00000230: 2557 c43a 5f62 033c ff03 00ba 7ace 3d3c
00000240: 6b55 38bc c902 6abb 99eb ca3c 55c7 36bc
00000250: 7be7 47bc dd9b 833c 2e03 183c 25cd 633c
00000260: e5e5 9cbc 8e17 963b 1ae5 1bbc 985c b03c
00000270: a196 50ba 7615 89bb c4ef 04bc 1156 943c
00000280: 4dfc 48bc b762 403d 3690 40bc 45a5 4fbc
00000290: 3c3c 1d3c 2b27 503c 4fab 06bd e890 803c
000002a0: 6c5e 9e39 6510 8ebb 641e 23bb 0b57 a3ba
000002b0: e42c 3139 0566 3c3c a444 963c 3305 54bc
000002c0: 20d9 683c ea34 7fbc eaab 8f3c a0d4 493c
000002d0: 080d 4bbc 4453 183c b23c 1ebc b9cc b53c
000002e0: 6652 e93b df2b a8bc 46c0 56bc 6c3f 0a3c
000002f0: 7705 93bc e0d2 8c3c b518 473c 6372 923c
-0.039876476 0.010188793 0.012879901 0.051096253 -0.0388051 -0.05915887 -0.013424568 0.003888121
-0.011912759 0.021542883 -0.008770292 -0.033778746 -0.03007854 0.011684693 0.017543068 0.025141008
-0.023002034 -0.03471072 -0.030665077 0.011210604 -0.008677366 0.018672528 -0.0034659468 0.0068794033
-0.010180413 -0.0051136184 -0.0093842605 0.002316556 -0.021579012 -0.021848837 0.002855688 0.0010289329
-0.03295312 -1.5548314e-05 -0.010883034 -0.0048727477 0.0042283908 -0.019229108 -0.02103011 -0.00771705
-0.010847436 -0.039175604 -0.031966247 -0.015671698 0.024372397 0.01504936 -0.020888794 -0.016872592
0.023373054 -0.0033810963 0.017108953 -0.023793582 -0.03419438 0.0370202 0.01592858 0.012144919
0.0222309 0.0027204268 0.003733199 0.013053058 -0.009505299 0.042863723 -0.01300487 -0.0036008311
0.005411535 0.004986971 -0.0061657405 -0.02553468 0.015850544 0.027249701 0.013452766 -0.0031799458
0.02130676 0.010110564 0.011972643 -0.0119125 0.02119498 0.011744338 0.007128789 -0.011051234
-0.0118510695 0.02009084 0.008337697 -0.0056462903 0.015073523 -0.0130580645 0.021707762 0.022009926
0.018965062 -0.041378714 0.013466528 0.023251532 0.038462564 0.020284817 -0.012113476 -0.021468628
0.016349256 0.04159674 -0.020594086 -0.004261713 0.010442648 0.015157854 0.028580038 0.0148080485
0.026587483 -0.0022540435 0.011554506 0.01025192 0.052893713 0.02334218 0.012237142 0.011936863
-0.023007236 -0.00693792 -0.005906682 0.012510697 0.013254346 -0.019031659 0.02787655 0.023664257
-0.0045301644 0.020582426 0.02152589 0.013734738 -0.033755053 0.018092383 0.03545736 -0.018464036
-0.016057568 0.020133799 0.017669441 0.015821235 0.00638511 -0.026209554 0.010316878 0.004878411
-0.0164906 -0.007253047 -0.014802356 -0.018156838 0.0014979584 0.008019059 -0.0004883408 0.011584872
-0.011250834 -0.0035707226 0.024770545 -0.011155923 -0.012201185 0.016065532 0.009278102 0.013903891
-0.019152591 0.0045804447 -0.009515071 0.021528527 -0.0007957016 -0.0041834665 -0.008113805 0.018107446
-0.012267184 0.04696914 -0.011753133 -0.012673681 0.0095968805 0.012704651 -0.032878216 0.015694097
0.00030206458 -0.0043354505 -0.002488994 -0.0012461854 0.00016896758 0.011498933 0.018343277 -0.012940693
0.014211923 -0.015576581 0.01753803 0.01231876 -0.012393244 0.009297196 -0.009658026 0.022192346
0.0071204184 -0.020528732 -0.013107365 0.0084379725 -0.017946942 0.017190397 0.012151887 0.01787681

unstack1 f4 [192]
00000000: 8455 23bd e5ee 263c 3806 533c 4e4a 513d
00000010: 19f2 1ebd 9250 72bd b8f2 5bbc d9cf 7e3b
00000020: bc2d 43bc b37a b03c 45b1 0fbc 955b 0abd
00000030: 4567 f6bc 2871 3f3c 7bb6 8f3c 84f4 cd3c
00000040: c36e bcbc d42c 0ebd 5435 fbbc aeac 373c
00000050: 832b 0ebc 21f7 983c f024 63bb 9e6c e13b
00000060: bfcb 26bc 2490 a7bb 71c0 19bc 5cd1 173b
00000070: 78c6 b0bc 55fc b2bc 7f26 3b3b 42dd 863a
00000080: daf9 06bd c06d 82b7 c14e 32bc 92ab 9fbb
00000090: 508e 8a3b 5d86 9dbc 5647 acbc 4fdf fcbb
000000a0: 72b9 31bc 9976 20bd 0aef 02bd ef61 80bc
000000b0: 9fa8 c73c 9791 763c fa1e abbc 6438 8abc
000000c0: d978 bf3c 6295 5dbb 1328 8c3c c2ea c2bc
000000d0: 680f 0cbd 7ea2 173d a77c 823c 7bfb 463c
000000e0: 941d b63c 3049 323b b0a8 743b 7edc 553c
000000f0: 1dbc 1bbc df91 2f3d 6112 55bc ecfb 6bbb
00000100: 3f53 b13b bf69 a33b fb09 cabb 1b2e d1bc
00000110: 00d9 813c c43a df3c fe68 5c3c a366 50bb
00000120: 848b ae3c c7a6 253c e828 443c a52c 43bc
00000130: 18a1 ad3c 536b 403c 9e98 e93b 3c10 35bc
00000140: fd2a 42bc 8c95 a43c d69a 083c 8404 b9bb
00000150: f0f6 763c 7ef1 55bc 7ad4 b13c 294e b43c
00000160: 9e5c 9b3c ba7c 29bd b6a2 5c3c ff79 be3c
00000170: ec8a 1d3d 582c a63c 9a77 46bc fade afbc
00000180: e0ee 853c 5861 2a3d eeb4 a8bc d7a5 8bbb
00000190: a417 2b3c a658 783c af20 ea3c 759d 723c
000001a0: fecd d93c 93b8 13bb 1c4f 3d3c abf7 273c
000001b0: 14a7 583d 1938 bf3c 4b7e 483c d592 433c
000001c0: ac79 bcbc 7e57 e3bb d78c c1bb abf9 4c3c
000001d0: c228 593c 48e8 9bbc 5d5d e43c 8bdb c13c
000001e0: c671 94bb 7a9c a83c 1057 b03c ab07 613c
000001f0: bd42 0abd 7a36 943c bd3b 113d e441 97bc
00000200: ac36 80bc b2d6 bc3c 1a6e 8e3c 1bcf 393c
00000210: 4775 3fba 6fd8 b1bc 5d5e 4b3c 7837 e03a
00000220: da17 82bc 2fcd bbbb 132e 71bc 810b 83bc
00000230: 37d3 243c 479d 0a3c 6f6d a83b dae6 3c3c
00000240: f432 9cbb a089 b1bb 492f f1bb 372f 52bc
00000250: b3fb 4bbc 7b7a 823c e489 df3b 6c1b 673c
00000260: d612 63bc 8e7b 963c e2f7 12bc f23a b83c
00000270: 891d 4ebc a1ce 13bb b0f7 3fbc 59fd 8e3c
00000280: 244b 89bc b731 bb3c a13b a9bc b44b 7ebc
00000290: 71b8 113c 3f01 513c fa65 8c3c 2cb8 7f3c
000002a0: e6c9 a83b 25c6 ab3b 8b14 0ebc 0ff1 c13b
000002b0: cafd 923b ab0b 5a3c dacd 9a3c bf41 5fbc
000002c0: ed07 9b3c 6fe6 97bc 647b 9f3c 2a5f 613c
000002d0: 8477 02bc 6010 7b3b b761 19bc c8c1 ef3b
000002e0: 1105 a33b 0bd4 9fbc c4ed 83bc 6ef0 1e3c
000002f0: 9d69 78bc 53f4 8e3c caf6 053b 23a2 a93b
-0.039876476 0.010188793 0.012879901 0.051096253 -0.0388051 -0.05915887 -0.013424568 0.003888121
-0.011912759 0.021542883 -0.008770292 -0.033778746 -0.03007854 0.011684693 0.017543068 0.025141008
-0.023002034 -0.03471072 -0.030665077 0.011210604 -0.008677366 0.018672528 -0.0034659468 0.0068794033
-0.010180413 -0.0051136184 -0.0093842605 0.002316556 -0.021579012 -0.021848837 0.002855688 0.0010289329
-0.03295312 -1.5548314e-05 -0.010883034 -0.0048727477 0.0042283908 -0.019229108 -0.02103011 -0.00771705
-0.010847436 -0.039175604 -0.031966247 -0.015671698 0.024372397 0.01504936 -0.020888794 -0.016872592
0.023373054 -0.0033810963 0.017108953 -0.023793582 -0.03419438 0.0370202 0.01592858 0.012144919
0.0222309 0.0027204268 0.003733199 0.013053058 -0.009505299 0.042863723 -0.01300487 -0.0036008311
0.005411535 0.004986971 -0.0061657405 -0.02553468 0.015850544 0.027249701 0.013452766 -0.0031799458
0.02130676 0.010110564 0.011972643 -0.0119125 0.02119498 0.011744338 0.007128789 -0.011051234
-0.0118510695 0.02009084 0.008337697 -0.0056462903 0.015073523 -0.0130580645 0.021707762 0.022009926
0.018965062 -0.041378714 0.013466528 0.023251532 0.038462564 0.020284817 -0.012113476 -0.021468628
0.016349256 0.04159674 -0.020594086 -0.004261713 0.010442648 0.015157854 0.028580038 0.0148080485
0.026587483 -0.0022540435 0.011554506 0.01025192 0.052893713 0.02334218 0.012237142 0.011936863
-0.023007236 -0.00693792 -0.005906682 0.012510697 0.013254346 -0.019031659 0.02787655 0.023664257
-0.0045301644 0.020582426 0.02152589 0.013734738 -0.033755053 0.018092383 0.03545736 -0.018464036
-0.01565107 0.023051593 0.017386485 0.011340882 -0.00073035475 -0.021709649 0.012412635 0.0017106375
-0.015880514 -0.005731247 -0.014720458 -0.015996696 0.010060123 0.008460349 0.0051399986 0.011529649
-0.0047668163 -0.0054180175 -0.007360373 -0.01282864 -0.0124501465 0.015927544 0.0068218578 0.014105659
-0.013859471 0.018369462 -0.008970233 0.022489045 -0.012580284 -0.002255358 -0.011716768 0.01745479
-0.016759463 0.022850854 -0.020658316 -0.015520979 0.008894072 0.012756645 0.01713847 0.015607875
0.0051510213 0.0052421265 -0.00867189 0.005918629 0.0044858204 0.013308446 0.018896986 -0.013626515
0.018924678 -0.018542496 0.019468017 0.013755599 -0.007963065 0.003830932 -0.009361676 0.0073168017
0.004974969 -0.01951029 -0.016104586 0.009700878 -0.015161899 0.017450487 0.0020441287 0.005176799

unstack2 f4 [192]
00000000: c5b8 683c 2c47 39bc 1760 35bb 57a9 82bc
00000010: 8bf4 2c3d cb13 263c 3258 1cbc 2385 63bd
00000020: 321c 4fba 6388 76bb 4aa7 9b3c 14ec 673d
00000030: 0180 ad3c 466d 0cbc 4398 febc 4ac3 203c
00000040: de12 fc3b 0b77 88bc 936b 40bc d3d2 813a
00000050: 8879 4abb 4740 8d3b 021f b43c abcd 2b3c
00000060: aac0 4f3c 82e9 b63c f99e f5bb f1be 51bc
00000070: 300f c4bc d507 3fb9 06d2 6bbc 0e85 36bc
00000080: 8f44 dcbc 2f81 75bc d5a0 ccbb 5c15 79bc
00000090: bc31 acbc 09a0 00bd 68a8 7dbc 77ba 7a3c
000000a0: 1e84 2f3c a895 d63c f705 4b3b 5aab a1bb
000000b0: 0573 153b 65eb ae3c 0bef 8fbb 7882 453c
000000c0: 2cec dd3c fc6e 523c cb86 253c 5c0c c53b
000000d0: ccd6 2dbd d1ed 31bb 6482 15bc bc24 433b
000000e0: 7639 febc 00df 85bc 0dd4 09bb d12b 8fbc
000000f0: e166 80bc f460 c438 1bce b43b 0408 323d
00000100: 0cca 833a 8b35 72bb 4689 1f3c 6098 7c3c
00000110: 5fe6 29bc 96fe 6d3c a73c dbbc 1b10 cc3b
00000120: 3128 7d3c a053 003c 4078 2bbc 730b e5bc
00000130: e8c3 d1bb 5c5a 5c3c 6623 66bc 037f 90bc
00000140: 6e1c fd3b 1ead 963b 1972 2d3d 6ba1 943c
00000150: b1c7 0f3c 8348 7d3c 86ff 12bc 4dea 2cbc
00000160: e0b0 973b a1e4 cc3c 25f9 62bc b937 ce3c
00000170: 9d3f 943b 744a 6c3c 0868 6a3c 2081 5dbc
00000180: 2979 873c 5325 583c 7cd8 1b3c 406b d83c
00000190: 03c5 8dbc 78ca 853c 63b8 1ebc cfb8 99bc
000001a0: 9068 17bc 3b44 3f3c bf95 313b 167b 4b3c
000001b0: 4892 4a3c d1eb 2ebc be92 b23b e839 d1bb
000001c0: 318e 1abc 2e9c b03c cd2e 983c ef24 803c
000001d0: 8532 863b 96e0 d53c 7c90 8439 472c 673c
000001e0: 6432 323c ffe5 483c 71ae 90bc fc29 12bc
000001f0: 02d9 503a bcca 58bc 6f1e 663c 938b 1c3c
00000200: 7c2f 7c3c ea61 24bc 454d 363c 1b78 a13c
00000210: 814b 82bc 9544 71bc 3353 e2ba 07d3 0b3c
00000220: 96af 3dbc 251b a9bc ac7c 01bb 8fc1 903c
00000230: c2a1 3ebc f94c cc3a c3ba 6c3c b1f2 723c
00000240: 806c 2cbc ff5f 51bb a2ce 5f3d f945 7c3c
00000250: 1070 24bc a73d 8d3c 7954 2cbc 3a2a 53bc
00000260: 8e52 983a 6260 ba3c 5297 acbc ee56 a53a
00000270: 8ec3 03bc c3f8 28bb 37a6 0ebc a2ad 543c
00000280: 9730 823c cabd 73bc b60a 8dbc fc8e 813c
00000290: f7f2 7a3c 25ee 033c e9eb 173c 6b61 9c3c
000002a0: 1ada 82bc 4e9d a2bb 22a6 a2bb 7f9f 403c
000002b0: 3e08 0ebc 2ab4 473c 7a58 35ba 78aa 1b3c
000002c0: 9f14 3a3c 5481 5dbc d8bc 913c d0ab 4e3c
000002d0: 9cd6 84bb 309c 1cbc 0afb fc3b d5af 52bb
000002e0: ef50 e2bb 7a60 0c3c 323e 80bc 541c 8fbc
000002f0: 552a d33b 7159 87bc 2ab1 403c c318 113c
0.014204209 -0.011308473 -0.0027675682 -0.015949888 0.0422254 0.010136555 -0.009542512 -0.05554689
-0.0007900625 -0.0037617914 0.019000668 0.056621626 0.021179201 -0.008570975 -0.031078463 0.009812186
0.007692679 -0.016658327 -0.011744398 0.000990475 -0.0030895192 0.004310641 0.021987442 0.010486047
0.012680212 0.022328142 -0.0074957577 -0.012801872 -0.023933023 -0.00018218097 -0.014393335 -0.011140121
-0.02688816 -0.014984413 -0.0062447586 -0.015202846 -0.021019809 -0.03140262 -0.015482046 0.015303246
0.010712652 0.026194409 0.0030978897 -0.004933757 0.0022804153 0.02135248 -0.00439251 0.012055032
0.027090155 0.012843844 0.010102938 0.0060134362 -0.042441174 -0.0027149806 -0.009125326 0.0029776534
-0.031033259 -0.016341686 -0.0021030933 -0.017476948 -0.015674056 9.364067e-05 0.0055177337 0.043464676
0.0010054721 -0.0036958184 0.009737318 0.015417188 -0.010369866 0.01452603 -0.02676232 0.006227506
0.015451477 0.007832438 -0.010465682 -0.027959561 -0.0064015277 0.013449278 -0.014046526 -0.017638689
0.0077243363 0.004598274 0.04234514 0.018143376 0.0087756375 0.015459183 -0.008972054 -0.010553909
0.0046292394 0.025011363 -0.013853346 0.025173055 0.004524185 0.014422048 0.01430703 -0.013519555
0.016537266 0.013192493 0.009512063 0.026418328 -0.017305857 0.016331896 -0.009687516 -0.018764881
-0.009241238 0.011673982 0.0027097312 0.012419483 0.012363978 -0.01067634 0.005449622 -0.006385077
-0.009433315 0.021558847 0.018577004 0.015642611 0.004095378 0.026108067 0.0002528465 0.014109678
0.010876272 0.012261867 -0.017661305 -0.008921143 0.0007966907 -0.013231929 0.014045342 0.009554761
0.0153921805 -0.01003311 0.011126821 0.019710591 -0.015905144 -0.014725824 -0.0017267227 0.0085342
-0.0115775075 -0.020642826 -0.0019758148 0.01767042 -0.011635246 0.0015586904 0.014448824 0.01482837
-0.010523915 -0.0031948087 0.05464042 0.015397542 -0.010036483 0.017241312 -0.010518187 -0.012888486
0.0011621283 0.022751037 -0.021068249 0.0012614408 -0.008042229 -0.002578304 -0.008706621 0.01298085
0.01589231 -0.014876792 -0.017217021 0.01581525 0.015316716 0.008052384 0.009272554 0.019089421
-0.01597314 -0.0049626 -0.004963652 0.011756777 -0.008668957 0.012188951 -0.0006917786 0.009501092
0.0113574555 -0.013519604 0.017790243 0.0126142055 -0.0040539037 -0.009558722 0.007720356 -0.003214826
-0.0069066207 0.008567924 -0.015654657 -0.017469563 0.0064442554 -0.016522141 0.011760989 0.008856001

unstack3 f4 [192]
00000000: c5b8 683c 2c47 39bc 1760 35bb 57a9 82bc
00000010: 8bf4 2c3d cb13 263c 3258 1cbc 2385 63bd
00000020: 321c 4fba 6388 76bb 4aa7 9b3c 14ec 673d
00000030: 0180 ad3c 466d 0cbc 4398 febc 4ac3 203c
00000040: de12 fc3b 0b77 88bc 936b 40bc d3d2 813a
00000050: 8879 4abb 4740 8d3b 021f b43c abcd 2b3c
00000060: aac0 4f3c 82e9 b63c f99e f5bb f1be 51bc
00000070: 300f c4bc d507 3fb9 06d2 6bbc 0e85 36bc
00000080: 8f44 dcbc 2f81 75bc d5a0 ccbb 5c15 79bc
00000090: bc31 acbc 09a0 00bd 68a8 7dbc 77ba 7a3c
000000a0: 1e84 2f3c a895 d63c f705 4b3b 5aab a1bb
000000b0: 0573 153b 65eb ae3c 0bef 8fbb 7882 453c
000000c0: 2cec dd3c fc6e 523c cb86 253c 5c0c c53b
000000d0: ccd6 2dbd d1ed 31bb 6482 15bc bc24 433b
000000e0: 7639 febc 00df 85bc 0dd4 09bb d12b 8fbc
000000f0: e166 80bc f460 c438 1bce b43b 0408 323d
00000100: 0cca 833a 8b35 72bb 4689 1f3c 6098 7c3c
00000110: 5fe6 29bc 96fe 6d3c a73c dbbc 1b10 cc3b
00000120: 3128 7d3c a053 003c 4078 2bbc 730b e5bc
00000130: e8c3 d1bb 5c5a 5c3c 6623 66bc 037f 90bc
00000140: 6e1c fd3b 1ead 963b 1972 2d3d 6ba1 943c
00000150: b1c7 0f3c 8348 7d3c 86ff 12bc 4dea 2cbc
00000160: e0b0 973b a1e4 cc3c 25f9 62bc b937 ce3c
00000170: 9d3f 943b 744a 6c3c 0868 6a3c 2081 5dbc
00000180: 2979 873c 5325 583c 7cd8 1b3c 406b d83c
00000190: 03c5 8dbc 78ca 853c 63b8 1ebc cfb8 99bc
000001a0: 9068 17bc 3b44 3f3c bf95 313b 167b 4b3c
000001b0: 4892 4a3c d1eb 2ebc be92 b23b e839 d1bb
000001c0: 318e 1abc 2e9c b03c cd2e 983c ef24 803c
000001d0: 8532 863b 96e0 d53c 7c90 8439 472c 673c
000001e0: 6432 323c ffe5 483c 71ae 90bc fc29 12bc
000001f0: 02d9 503a bcca 58bc 6f1e 663c 938b 1c3c
00000200: de73 8a3c 3d81 14bc c28c 3d3c 30b0 a23c
00000210: 54c1 83bc d130 7abc 8c96 bcbb 44f6 4e3b
00000220: 6d77 2ebc e6ba aabc 2409 5ebb 60ea 373c
00000230: 303d 10bb 8415 ffba 3b78 333c 21c4 773c
00000240: 2b61 0cbc c1cb 7abb be3c 033d 8e35 563c
00000250: 526f 0abc b060 873c 9160 25bc e2ac 80bc
00000260: 1fe5 d53a fa8a bb3c 6de9 bdbc 4270 03ba
00000270: fe38 0abc 3e27 8ebb c385 38bc e603 5e3c
00000280: c9d9 843c 0d4c 68bc 9eec eb3b be47 f53b
00000290: 5c9b af3c bb93 033c 46f8 863b 2cb3 b23c
000002a0: 014e babc fbd9 1bbc 5c2d 5dbb b39e 463c
000002b0: 30c2 b6bb a8af 783c b421 dab8 5d0a 2f3c
000002c0: 4686 313c 7860 86bc 5516 943c 4799 603c
000002d0: 098e 34bc 86e9 58bc 5095 893b 6a48 2cbb
000002e0: 739d 74bc fc50 0f3c dbb6 3cbc 24a1 a3bc
000002f0: cc23 e13b 2f87 88bc c013 403c 2a43 8c3b
0.014204209 -0.011308473 -0.0027675682 -0.015949888 0.0422254 0.010136555 -0.009542512 -0.05554689
-0.0007900625 -0.0037617914 0.019000668 0.056621626 0.021179201 -0.008570975 -0.031078463 0.009812186
0.007692679 -0.016658327 -0.011744398 0.000990475 -0.0030895192 0.004310641 0.021987442 0.010486047
0.012680212 0.022328142 -0.0074957577 -0.012801872 -0.023933023 -0.00018218097 -0.014393335 -0.011140121
-0.02688816 -0.014984413 -0.0062447586 -0.015202846 -0.021019809 -0.03140262 -0.015482046 0.015303246
0.010712652 0.026194409 0.0030978897 -0.004933757 0.0022804153 0.02135248 -0.00439251 0.012055032
0.027090155 0.012843844 0.010102938 0.0060134362 -0.042441174 -0.0027149806 -0.009125326 0.0029776534
-0.031033259 -0.016341686 -0.0021030933 -0.017476948 -0.015674056 9.364067e-05 0.0055177337 0.043464676
0.0010054721 -0.0036958184 0.009737318 0.015417188 -0.010369866 0.01452603 -0.02676232 0.006227506
0.015451477 0.007832438 -0.010465682 -0.027959561 -0.0064015277 0.013449278 -0.014046526 -0.017638689
0.0077243363 0.004598274 0.04234514 0.018143376 0.0087756375 0.015459183 -0.008972054 -0.010553909
0.0046292394 0.025011363 -0.013853346 0.025173055 0.004524185 0.014422048 0.01430703 -0.013519555
0.016537266 0.013192493 0.009512063 0.026418328 -0.017305857 0.016331896 -0.009687516 -0.018764881
-0.009241238 0.011673982 0.0027097312 0.012419483 0.012363978 -0.01067634 0.005449622 -0.006385077
-0.009433315 0.021558847 0.018577004 0.015642611 0.004095378 0.026108067 0.0002528465 0.014109678
0.010876272 0.012261867 -0.017661305 -0.008921143 0.0007966907 -0.013231929 0.014045342 0.009554761
0.016900953 -0.009064016 0.011569204 0.019859403 -0.016083397 -0.015270428 -0.0057552513 0.0031579891
-0.0106485905 -0.020841073 -0.003387996 0.011225313 -0.0022009127 -0.0019461368 0.010953958 0.015122444
-0.0085680885 -0.003826842 0.03204035 0.013074292 -0.008449392 0.016525596 -0.010093824 -0.015707437
0.0016318894 0.022893418 -0.023182595 -0.0005013981 -0.00843644 -0.004338174 -0.01126236 0.013550734
0.01621713 -0.014178288 0.007199838 0.007485359 0.021436386 0.008030827 0.004118952 0.021813951
-0.022742273 -0.00951242 -0.003374896 0.012122798 -0.005577348 0.015178598 -0.00010401328 0.010683623
0.010835236 -0.016403422 0.018077055 0.013708419 -0.011020192 -0.01323927 0.0041987076 -0.002628828
-0.014930117 0.0087473355 -0.0115182055 -0.019974299 0.0068707224 -0.016666023 0.011723459 0.0042804675

unstack4 f4 [144]
00000000: 551c 53bc e100 a83a 31e5 e83c 2924 67bd
00000010: 45a6 803d 90f1 923d 0d65 86bb 4be2 283d
00000020: 50e3 1dbd 7d4b 413d 3f44 b43c bac2 8bbb
00000030: 9c24 1c3b b7fa 18bd 8ef3 823d 4c05 a0bd
00000040: e17b b0bd fdf5 ebbc 8453 f3bc e78a 2a3d
00000050: 2ba2 833d a93f 68bd d998 393c c980 c2bc
00000060: d079 263d 457b 6fbd 493a 003c 5480 293d
00000070: 847e a2bc 90b3 c8bc 8846 12bd efbf 7d3d
00000080: ad0a 67bd 37f8 153c 8fff 473c 5818 7c3d
00000090: 605e 083c d783 983c d49a 40bd 0a60 a43c
000000a0: 8005 2e3d c708 243b d78d 3e3d 429e 1e3d
000000b0: 5a10 64bd 392f 00bd 92be b0bb 0f27 1f3d
000000c0: 3c12 1b3b 46db d63c 11a8 123c 23a4 1f3c
000000d0: 32ef 2fbc 7903 4a3c 9181 8f3c 5051 393c
000000e0: 53af 073d 192d b93b 65ba a23b ae1e abbb
000000f0: 0070 e7bb 1685 823c 198e 6e3c 1a69 613a
00000100: d823 483c 4fe1 4d3c fa30 89bc f3f0 0e3c
00000110: e7ac 7cbc 190d e4ba fbe0 b1bb 2048 3c3b
00000120: bbe8 183c 86b9 023c fe18 82bc c5c4 8cbc
00000130: 01d1 24bc 5fdf 1cbb 086f aa3c 1cd3 753c
00000140: 9a79 d03c 295b 0e3b 4ed9 643c 3314 afbc
00000150: fc3e be3b 87ed 4d3c be90 a6bb 6665 11bc
00000160: dc17 723c f529 863c c8ba 6f3c 261b a83c
00000170: dd48 2dba 1ef3 ec3c 4b96 8d3c d50a ac3c
00000180: 680a 973c a4a3 113c 28e7 5d3c 0e17 9aba
00000190: 31ba 243c 4eb1 89bc a0b0 e8bb 733b 433c
000001a0: 666f 99bc 2a99 aabb 55b7 b5bc 4cde 82bc
000001b0: 6407 03bc c688 cc3c 9bee 1c3c 257c 5a3a
000001c0: 647e eeb9 4a0d ddbb e114 933c a5b2 30bc
000001d0: 6d41 6ebc 1f85 e1bb 071f 993b 02d2 3dbc
000001e0: 98da bf3c 73cf 9639 7395 a33c 0fed cfbc
000001f0: b57b 03ba a0d8 cfbb 024c 993b 31c5 94bc
00000200: 51e3 48bb 6680 1f3a 7c3c e23c 7ff2 bb3c
00000210: 8253 8abc fd58 c9bc 61a5 75bc 7bbf 783c
00000220: 4cdf d9bc 5154 d8bc 7369 97bc 87f4 74b9
00000230: a4ee 2c3c c50a 173a 4ea9 803c a3cb b83c
-0.012885173 0.0012817645 0.0284296 -0.05643097 0.062817134 0.07174981 -0.0041014017 0.041231435
-0.03854686 0.04719113 0.022005199 -0.0042651566 0.0023825532 -0.037348475 0.063941106 -0.0781351
-0.08617378 -0.02880382 -0.02970291 0.041636374 0.064274155 -0.056701336 0.011327946 -0.02374305
0.040643513 -0.05846717 0.007826396 0.04138215 -0.019835718 -0.024499685 -0.035711795 0.06195062
-0.056406666 0.009153417 0.012206926 0.061546654 0.008323282 0.018617554 -0.047022656 0.020065326
0.042485714 0.0025029646 0.046521988 0.038725145 -0.055679657 -0.031295035 -0.0053938115 0.03885561
0.0023661992 0.026227605 0.008951203 0.009743723 -0.010738181 0.0123299295 0.017517837 0.01131089
0.033126187 0.005651128 0.0049660676 -0.005222163 -0.007062912 0.015932601 0.014560246 0.000859873
0.012215577 0.012565925 -0.016746987 0.008724439 -0.0154220825 -0.0017398923 -0.005428431 0.0028729513
0.009332831 0.007978803 -0.015881058 -0.01718367 -0.010059596 -0.002393685 0.020804897 0.015003946
0.02544861 0.0021721816 0.013967825 -0.021371936 0.005805848 0.012568838 -0.0050831726 -0.008874273
0.014776196 0.016377429 0.014631934 0.020520758 -0.0006610284 0.028924521 0.01728358 0.021001259
0.01843758 0.008889113 0.0135438815 -0.0011756138 0.010054157 -0.016808178 -0.0071011335 0.011916029
-0.018729877 -0.005206247 -0.022182146 -0.01597514 -0.0079973675 0.024967562 0.009578372 0.0008334539
-0.00045489066 -0.006745969 0.017954292 -0.01078478 -0.014541966 -0.0068823243 0.004672888 -0.011585714
0.023419663 0.0002876479 0.019968724 -0.025381593 -0.0005015687 -0.0063429624 0.0046782503 -0.018160434
-0.003065307 0.00060845015 0.027616732 0.02294278 -0.016885523 -0.024578566 -0.014993043 0.015182371
-0.026595734 -0.026407393 -0.0184829 -0.00023360747 0.010554943 0.00057617977 0.01570573 0.022558039

unstack5 f4 [144]
00000000: 551c 53bc e100 a83a 31e5 e83c 2924 67bd
00000010: 45a6 803d 90f1 923d 0d65 86bb 4be2 283d
00000020: 50e3 1dbd 7d4b 413d 3f44 b43c bac2 8bbb
00000030: 9c24 1c3b b7fa 18bd 8ef3 823d 4c05 a0bd
00000040: e17b b0bd fdf5 ebbc 8453 f3bc e78a 2a3d
00000050: 2ba2 833d a93f 68bd d998 393c c980 c2bc
00000060: d079 263d 457b 6fbd 493a 003c 5480 293d
00000070: 847e a2bc 90b3 c8bc 8846 12bd efbf 7d3d
00000080: ad0a 67bd 37f8 153c 8fff 473c 5818 7c3d
00000090: 605e 083c d783 983c d49a 40bd 0a60 a43c
000000a0: 8005 2e3d c708 243b d78d 3e3d 429e 1e3d
000000b0: 5a10 64bd 392f 00bd 92be b0bb 0f27 1f3d
000000c0: 3c12 1b3b 46db d63c 11a8 123c 23a4 1f3c
000000d0: 32ef 2fbc 7903 4a3c 9181 8f3c 5051 393c
000000e0: 53af 073d 192d b93b 65ba a23b ae1e abbb
000000f0: 0070 e7bb 1685 823c 198e 6e3c 1a69 613a
00000100: d823 483c 4fe1 4d3c fa30 89bc f3f0 0e3c
00000110: e7ac 7cbc 190d e4ba fbe0 b1bb 2048 3c3b
00000120: bbe8 183c 86b9 023c fe18 82bc c5c4 8cbc
00000130: 01d1 24bc 5fdf 1cbb 086f aa3c 1cd3 753c
00000140: 9a79 d03c 295b 0e3b 4ed9 643c 3314 afbc
00000150: fc3e be3b 87ed 4d3c be90 a6bb 6665 11bc
00000160: dc17 723c f529 863c c8ba 6f3c 261b a83c
00000170: dd48 2dba 1ef3 ec3c 4b96 8d3c d50a ac3c
00000180: 60a0 943c 92cb b63b 4d9d 2b3c 7097 55bb
00000190: c791 4d3c 43c1 81bc ce16 c1b9 77a4 df3b
000001a0: f523 bfbb 42fb 713b eaf6 9ebc 6bee 99bc
000001b0: 02c4 25bc e588 ec3c a568 f53b 6915 203b
000001c0: c3b9 5fbb 470c 09bc bcbb ca3b d5b4 85bc
000001d0: 3835 b0bc a726 4bbc 025f 043c 4bef 42bc
000001e0: fd86 cf3c c511 8c3b 1ece 973c 585d f5bc
000001f0: d43a 23bb 7157 083b 0058 f9ba 53e3 7dbc
00000200: 196b 92ba 6943 b5bb 97b0 ea3c 5ca1 d13c
00000210: 83f6 91bc 3576 d3bc 0ece 83bc b73a 9c3c
00000220: f774 d5bc f39c e8bc 76d4 9bbc 25fa 063c
00000230: 65db 0c3c 9515 4a3b aa5b 753b e081 15bc
-0.012885173 0.0012817645 0.0284296 -0.05643097 0.062817134 0.07174981 -0.0041014017 0.041231435
-0.03854686 0.04719113 0.022005199 -0.0042651566 0.0023825532 -0.037348475 0.063941106 -0.0781351
-0.08617378 -0.02880382 -0.02970291 0.041636374 0.064274155 -0.056701336 0.011327946 -0.02374305
0.040643513 -0.05846717 0.007826396 0.04138215 -0.019835718 -0.024499685 -0.035711795 0.06195062
-0.056406666 0.009153417 0.012206926 0.061546654 0.008323282 0.018617554 -0.047022656 0.020065326
0.042485714 0.0025029646 0.046521988 0.038725145 -0.055679657 -0.031295035 -0.0053938115 0.03885561
0.0023661992 0.026227605 0.008951203 0.009743723 -0.010738181 0.0123299295 0.017517837 0.01131089
0.033126187 0.005651128 0.0049660676 -0.005222163 -0.007062912 0.015932601 0.014560246 0.000859873
0.012215577 0.012565925 -0.016746987 0.008724439 -0.0154220825 -0.0017398923 -0.005428431 0.0028729513
0.009332831 0.007978803 -0.015881058 -0.01718367 -0.010059596 -0.002393685 0.020804897 0.015003946
0.02544861 0.0021721816 0.013967825 -0.021371936 0.005805848 0.012568838 -0.0050831726 -0.008874273
0.014776196 0.016377429 0.014631934 0.020520758 -0.0006610284 0.028924521 0.01728358 0.021001259
0.018142879 0.0055784667 0.010474515 -0.0032591484 0.012546963 -0.015839225 -0.0003682882 0.0068250257
-0.005833144 0.0036923443 -0.019404847 -0.018790444 -0.010117533 0.02887387 0.0074892812 0.0024426824
-0.0034137822 -0.008364744 0.0061869305 -0.016321579 -0.021509752 -0.012399352 0.008079292 -0.011897872
0.025332922 0.004274579 0.018530902 -0.029951736 -0.002490689 0.0020804072 -0.0019023418 -0.015496093
-0.0011170834 -0.0055317176 0.028648658 0.025589637 -0.017817741 -0.025813201 -0.016089465 0.019070966
-0.02605675 -0.028395152 -0.019022208 0.00823835 0.00859723 0.0030835618 0.003743867 -0.009125203

unstack6 f4 [144]
00000000: f979 d8bc 29ca 67bd 15c0 e33c 324e afbd
00000010: 6273 b53c 7499 0ebd b9af aabd 9011 353d
00000020: 73d6 6abd 3b9d 68bd 8ad2 8cbd 52f1 44bc
00000030: 26b0 24bd 9b77 3dbd 5f04 4b3c c4a3 793d
00000040: a5fa f83a 9e43 b13c 01a4 25bd 4079 99bc
00000050: 9851 8f3d acbe 9b3c cd30 ac3c 0b1b 0f3d
00000060: 83dc b9bb 10a2 bd3c aff7 7cbc 1fb4 8fbd
00000070: c2d7 25bd e1f1 3e3d a824 c3bd 3b71 8dbd
00000080: d51c 74bd 2690 b5bd 9df4 843d 7252 7ebb
00000090: 474c 9ebc c18a 3b3d 85cf 2cbd b33c a43c
000000a0: 938a 83bd 9dc3 0bbd c9db 5b3d ecd0 7b3c
000000b0: 7288 69bd e865 733d b2b9 bcbd 4c3c 7c3c
000000c0: 0366 b83c 2d8e a1bb 356e 1b3c 442a a3bb
000000d0: 0212 cf3c bc28 89bc 6552 edbb f20f b8bb
000000e0: 885b 9fba 8a8a ee3b 65b7 88ba d6a4 f63b
000000f0: 2f96 6e3c 58d1 00bc 8c5b 9e3c 4caf a83c
00000100: 797b a33c 5d5c 363c e7ff 5b3c 7df4 cc3c
00000110: 18f7 623c 14a5 8dba c7e5 4cbc 2b79 9a3c
00000120: d65d 06bb aabb 4dbc 2563 933c ba08 953c
00000130: bf97 8fba c3db 2b3c 1096 89bc 8978 d4bb
00000140: 1cb7 963b e8fb e939 190d c3bb ecba 6e3c
00000150: 84ed 5bbc 6884 3c3c 6910 28bc 41a4 f63a
00000160: 5dd9 8a3c 4c11 873a baad 8f3c 23a7 13bc
00000170: 15b6 8cb9 e7cc 533c 6437 05bc 51da 523b
00000180: 9f68 c33c 5813 98bc 3783 f93b e40e 33bc
00000190: 6fae 8439 e29d 82bc 2958 3abc e052 f23b
000001a0: 434d 953b b6cd 153c 8eb7 f939 37cc 133c
000001b0: 1b7d 4bbc 1a4a 4639 fcab a0bb 06bf 603c
000001c0: 7de1 0d38 03a1 963c cf72 bb3c 32c8 50bc
000001d0: 9318 c2bc b7b2 bb3a 754c 813c 4f82 813b
000001e0: d698 f7bb bb0b 11bb 115b 53bc ac5f 23bc
000001f0: d386 573b c20c 533c 10d4 8a3c fca2 713c
00000200: 6830 993c 272e 9dbb a568 00bb c61f 70bc
00000210: 801b 4e39 5815 26bc 26e7 883c f3c0 07bb
00000220: f651 af3c 9e54 093b e5ab ad3c 2e87 0fbc
00000230: dc6c b43a d0a6 643a 0a1d 81bc 81bf 22bc
-0.026425349 -0.05658928 0.027801553 -0.085598364 0.022149745 -0.034814313 -0.08334298 0.044206202
-0.05733342 -0.05679057 -0.06876095 -0.012020426 -0.04020705 -0.046256643 0.012391179 0.060947195
0.0018995596 0.021638688 -0.04043961 -0.018734574 0.06997985 0.019011818 0.021019364 0.0349379
-0.005672039 0.023148566 -0.015439912 -0.07016777 -0.040488966 0.046617392 -0.09528476 -0.069063626
-0.05959781 -0.08865385 0.06491969 -0.0038806465 -0.019323481 0.045786623 -0.042190094 0.020048475
-0.06422915 -0.0341221 0.0536764 0.015369635 -0.05701489 0.059423357 -0.09215106 0.015395235
0.02250958 -0.0049302788 0.009486725 -0.0049794037 0.025277141 -0.016743056 -0.007242488 -0.005617135
-0.0012158016 0.0072796987 -0.0010430632 0.007526974 0.014562174 -0.007862411 0.019330762 0.0205914
0.019956337 0.01113042 0.013427711 0.025018925 0.013852857 -0.0010806643 -0.012505955 0.018856606
-0.0020502708 -0.01255695 0.017991612 0.018192638 -0.0010955258 0.010489407 -0.016795188 -0.0064840955
0.004599465 0.00044628908 -0.005952489 0.014570933 -0.013423327 0.0115061775 -0.010257819 0.0018817262
0.01694935 0.0010304837 0.017538894 -0.0090120165 -0.00026838543 0.0129272705 -0.008130882 0.0032173584
0.023853598 -0.018563911 0.007614519 -0.010928843 0.00025306965 -0.015944425 -0.011373558 0.0073951334
0.0045563295 0.009143284 0.0004762974 0.009020857 -0.012419964 0.00018910356 -0.0049033146 0.013717419
3.3827022e-05 0.018387323 0.022881893 -0.012743043 -0.023693359 0.0014320229 0.015783528 0.0039523016
-0.0075560613 -0.0022132236 -0.01290013 -0.00997154 0.0032886758 0.01288146 0.016946822 0.014748331
0.01869984 -0.0047967616 -0.0019593623 -0.014656013 0.00019655935 -0.010136925 0.016711783 -0.0020714372
0.021401387 0.0020954977 0.02120013 -0.008760257 0.0013765353 0.0008722367 -0.015760917 -0.009933353

unstack7 f4 [144]
00000000: f979 d8bc 29ca 67bd 15c0 e33c 324e afbd
00000010: 6273 b53c 7499 0ebd b9af aabd 9011 353d
00000020: 73d6 6abd 3b9d 68bd 8ad2 8cbd 52f1 44bc
00000030: 26b0 24bd 9b77 3dbd 5f04 4b3c c4a3 793d
00000040: a5fa f83a 9e43 b13c 01a4 25bd 4079 99bc
00000050: 9851 8f3d acbe 9b3c cd30 ac3c 0b1b 0f3d
00000060: 83dc b9bb 10a2 bd3c aff7 7cbc 1fb4 8fbd
00000070: c2d7 25bd e1f1 3e3d a824 c3bd 3b71 8dbd
00000080: d51c 74bd 2690 b5bd 9df4 843d 7252 7ebb
00000090: 474c 9ebc c18a 3b3d 85cf 2cbd b33c a43c
000000a0: 938a 83bd 9dc3 0bbd c9db 5b3d ecd0 7b3c
000000b0: 7288 69bd e865 733d b2b9 bcbd 4c3c 7c3c
000000c0: 0366 b83c 2d8e a1bb 356e 1b3c 442a a3bb
000000d0: 0212 cf3c bc28 89bc 6552 edbb f20f b8bb
000000e0: 885b 9fba 8a8a ee3b 65b7 88ba d6a4 f63b
000000f0: 2f96 6e3c 58d1 00bc 8c5b 9e3c 4caf a83c
00000100: 797b a33c 5d5c 363c e7ff 5b3c 7df4 cc3c
00000110: 18f7 623c 14a5 8dba c7e5 4cbc 2b79 9a3c
00000120: d65d 06bb aabb 4dbc 2563 933c ba08 953c
00000130: bf97 8fba c3db 2b3c 1096 89bc 8978 d4bb
00000140: 1cb7 963b e8fb e939 190d c3bb ecba 6e3c
00000150: 84ed 5bbc 6884 3c3c 6910 28bc 41a4 f63a
00000160: 5dd9 8a3c 4c11 873a baad 8f3c 23a7 13bc
00000170: 15b6 8cb9 e7cc 533c 6437 05bc 51da 523b
00000180: 318d c03c 5743 55bc c1d8 ce3b 9f5a 80bc
00000190: 480f 89ba fe20 79bc 2106 85ba b515 423b
000001a0: 2d70 863b 6c88 8e3b a5ad 953a 0218 e1b9
000001b0: 4226 a2bb 4fb6 d5bb 2226 cdbb b9d0 863b
000001c0: 661f b23b f64f 2c3c d2c7 cd3c 3a54 fc39
000001d0: 3ba5 abbc b925 6e3b d37c bc3c 1a2a ff3b
000001e0: 01d4 8dbb 07ec 69bb 386a d7ba 7120 1abc
000001f0: c774 203c aabf 503c 798d 213c 83e8 803c
00000200: 108b a43c 62ac 33bb d19e 86bc 274e 6fbc
00000210: 71ae d8bb c2a6 0fbc 7b3e 8e3c 2533 0dbc
00000220: a737 bd3c 3ebc 4b3b 1486 a93c ee0f 24bc
00000230: 85a6 8fbb c56e 843a 55c3 9dbc 7075 15bc
-0.026425349 -0.05658928 0.027801553 -0.085598364 0.022149745 -0.034814313 -0.08334298 0.044206202
-0.05733342 -0.05679057 -0.06876095 -0.012020426 -0.04020705 -0.046256643 0.012391179 0.060947195
0.0018995596 0.021638688 -0.04043961 -0.018734574 0.06997985 0.019011818 0.021019364 0.0349379
-0.005672039 0.023148566 -0.015439912 -0.07016777 -0.040488966 0.046617392 -0.09528476 -0.069063626
-0.05959781 -0.08865385 0.06491969 -0.0038806465 -0.019323481 0.045786623 -0.042190094 0.020048475
-0.06422915 -0.0341221 0.0536764 0.015369635 -0.05701489 0.059423357 -0.09215106 0.015395235
0.02250958 -0.0049302788 0.009486725 -0.0049794037 0.025277141 -0.016743056 -0.007242488 -0.005617135
-0.0012158016 0.0072796987 -0.0010430632 0.007526974 0.014562174 -0.007862411 0.019330762 0.0205914
0.019956337 0.01113042 0.013427711 0.025018925 0.013852857 -0.0010806643 -0.012505955 0.018856606
-0.0020502708 -0.01255695 0.017991612 0.018192638 -0.0010955258 0.010489407 -0.016795188 -0.0064840955
0.004599465 0.00044628908 -0.005952489 0.014570933 -0.013423327 0.0115061775 -0.010257819 0.0018817262
0.01694935 0.0010304837 0.017538894 -0.0090120165 -0.00026838543 0.0129272705 -0.008130882 0.0032173584
0.023504825 -0.013016543 0.00631246 -0.015668212 -0.0010456825 -0.01520562 -0.0010148921 0.002961499
0.004102728 0.004349759 0.0011419548 -0.0004293323 -0.0049484083 -0.006521977 -0.0062606493 0.004114237
0.005435872 0.010517111 0.025119696 0.0004812794 -0.020952811 0.0036338402 0.02300874 0.0077870013
-0.0043282514 -0.0035693662 -0.0016434854 -0.009407149 0.009793467 0.012741009 0.00986039 0.01573587
0.020085841 -0.002741598 -0.016433151 -0.014606035 -0.006612592 -0.0087677855 0.017363777 -0.008618151
0.023097826 0.0031087543 0.020693816 -0.010013564 -0.0043838643 0.0010103813 -0.01925818 -0.009122238

model_1/output/BiasAdd/ReadVariableOp f4 [69]
00000000: f69f 393d 1be3 38bc a9a0 883c c3d7 cb3c
00000010: 201f 813c c0c0 83bc d471 52bb d195 0a3a
00000020: e86a 0b3d 517e 13bd 3b92 14bc 4d28 dc3c
00000030: 95d1 5dbc 14f4 023d c2f1 a83c 51eb 2cbc
00000040: 0c52 45bd 6cd2 033c 2d94 ec3c 85be 2c3d
00000050: f59b ad3c fdc7 c4bc 9794 a63b eb40 b8bc
00000060: 6e37 f639 dba3 adbc 3545 e7bb df06 eabc
00000070: 8e81 a2bc b205 85bc d641 24bd 3a85 cdbc
00000080: 1f9a 43bd 216f 26bd 25fa 11bd b50c 57bd
00000090: 9fd0 0fbd 0449 25bd 2b23 9bbc eec9 34bc
000000a0: 7f61 3bbd 74ab 123d aaa6 54bd c8ca 583b
000000b0: c448 25bd e403 09bd 08b4 58bd f778 53bd
000000c0: dc56 78bd 8265 e4bc b484 44bd f8d5 46bd
000000d0: 80b3 5ebc 2ebd 51bc 6ce7 e4bc b369 0abd
000000e0: b384 0fbd e196 3cbd eda6 34bd 9bcf 2dbd
000000f0: 8560 a7bc 60fb 1bbd 4a86 d73c dc19 83bc
00000100: 5a57 6fbd 6707 df3c 6e3b 56bd fcd1 bdbc
00000110: 6f1c 483d
0.045318566 -0.011284615 0.016678171 0.024883157 0.015761912 -0.016083121 -0.0032111304 0.00052866066
0.0340375 -0.036009137 -0.009068067 0.026874686 -0.013538738 0.031971052 0.020623092 -0.010554151
-0.04817395 0.008045774 0.02887925 0.04217388 0.02119253 -0.024021143 0.0050836313 -0.022491893
0.00046962075 -0.021196296 -0.0070578107 -0.02856773 -0.019837167 -0.016238067 -0.04010185 -0.025087941
-0.047754403 -0.040633325 -0.035638947 -0.052502353 -0.035111066 -0.040352836 -0.018937668 -0.011034472
-0.045747276 0.03580804 -0.051916756 0.0033079851 -0.040352598 -0.033450976 -0.052906066 -0.051629033
-0.06062971 -0.027880434 -0.047978118 -0.0485439 -0.013592601 -0.012801452 -0.027942382 -0.03379221
-0.03503866 -0.046042327 -0.044104505 -0.042434316 -0.020431766 -0.038081527 0.026309151 -0.016003542
-0.058432914 0.02722521 -0.05230277 -0.023171417 0.04885524
